preTrained/LunarLander_FOUR.pth (torch_old, 8172 bytes, 5 tensors)

affine.weight f4 [128, 8]
000000 6a d2 64 3e f6 30 19 bf 6c cd f6 be 93 88 29 c0
       0.22345892 -0.59840333 -0.482036 -2.6489608
000010 70 c1 4d be ad 8a 82 3d 89 8e cb bf 84 10 e5 bf
       -0.20093322 0.063741066 -1.5902873 -1.7895665
000020 20 62 6f 3f cb 99 a6 bf f4 fb 28 bf 13 c0 94 3f
       0.935091 -1.3015684 -0.6600945 1.1621116
000030 5f e9 c9 be 75 e3 9a be bb 7e 8d bc dd 0f ad bf
       -0.3943586 -0.3025166 -0.017272344 -1.3520466
000040 62 ac c1 3e 5b 8d cd be 71 5e 7c be a3 a0 cb 3e
       0.3782683 -0.40146908 -0.24645402 0.39770994
000050 1f d0 a5 3d 50 d2 d1 3e 8d 84 45 bf ce 64 8b bf
       0.080963366 0.40980768 -0.7715538 -1.0890138
000060 6f ce 43 3e 60 55 a3 be 7d 1c e8 bd b9 51 0b 3f
       0.19121717 -0.31901073 -0.11333559 0.54421574
000070 c0 ec 84 3e 95 89 29 3f 66 6a 83 bf bb 24 ea 3c
       0.25961876 0.6622556 -1.0266845 0.028581968
000080 d1 3f 97 bf 9f 44 3f bf 19 19 84 bf 93 68 29 3f
       -1.181635 -0.7471408 -1.0320159 0.6617519
000090 46 6f a6 3e 49 ab 9b be 61 82 ba bf 8b 16 d6 bf
       0.3250677 -0.30404118 -1.4571038 -1.672563
0000a0 84 af ab be e9 ad d8 be d9 cb 40 3f f4 c9 b6 3e
       -0.33532345 -0.42320183 0.75311047 0.35700953
0000b0 00 a1 7d be f0 03 c9 be 7a 9c 98 be ad 6c ff be
       -0.24768448 -0.39260817 -0.29806882 -0.498876
0000c0 28 1e 48 3e 09 03 a7 be ec 1b 9d 3d e1 23 b3 3d
       0.19542754 -0.32619503 0.07671341 0.08747078
0000d0 69 c2 23 3d 6a 7d 3c bd 25 be a6 be 1a 4a 71 be
       0.039980326 -0.04601804 -0.32566944 -0.23563424
0000e0 28 1c 14 ba d5 20 5a bf 4c f3 59 be 5e 8c 36 3f
       -0.00056499476 -0.8520635 -0.21284217 0.71307933
0000f0 ae 10 8f be 4c 9c 5e 3d 83 03 c1 bf 54 00 06 bf
       -0.27942413 0.054348275 -1.5079197 -0.5234425
000100 11 85 ab be 68 10 52 be 7e 16 cd 3d 46 86 3a bd
       -0.3349996 -0.20514071 0.10014056 -0.04553821
000110 bf ff 40 3e 8d ac 32 be 32 3b e2 be b5 50 30 be
       0.1884756 -0.17448635 -0.44185787 -0.17218287
000120 03 7d a0 3e 76 b2 9f be 0f 2c e8 bc 1e 3b 9e 3d
       0.31345376 -0.31190842 -0.028341321 0.077261195
000130 74 f0 4f bd 7c eb fb 3d 41 fe 73 be 43 ba e4 be
       -0.050766423 0.123007745 -0.23827459 -0.44673356
000140 52 72 31 bd f3 a4 19 bf 45 90 a3 3e 5b 8c 08 3d
       -0.043321915 -0.6001732 0.31946006 0.03333698
000150 00 fa e2 bd 03 fd 6e be e4 27 37 be 47 d2 80 be
       -0.1108284 -0.23338704 -0.17886311 -0.2516043
000160 05 df 20 3c ed d2 0e bf f4 a3 5e bd fe c3 00 be
       0.009818797 -0.557906 -0.054355577 -0.12574765
000170 7d aa 82 be 99 71 10 3e 91 71 6a be 2b 9d 36 be
       -0.25520697 0.14105834 -0.22894885 -0.17833392
000180 f2 c9 f3 3d b2 cf ad be 2b 54 32 be e6 f5 76 3e
       0.119037524 -0.3394752 -0.1741492 0.2411724
000190 b8 49 73 3e 59 04 6d be b4 f3 63 be 8b df 7d be
       0.2375859 -0.2314619 -0.22260934 -0.24792306
0001a0 51 f7 55 be 21 7d af be a8 de c1 be 8a b6 b1 3e
       -0.20895125 -0.34275153 -0.37865186 0.3470958
0001b0 4e e2 b2 3e b4 b7 fb bc 1e f9 0a be d5 71 37 bf
       0.34938282 -0.030727245 -0.13571593 -0.7165807
0001c0 af a1 a0 bc 6e f4 7d bf 68 b5 1e bd 47 21 2a be
       -0.019608347 -0.99201095 -0.03874722 -0.16614257
0001d0 00 2f d1 be a7 8a 89 be ff a9 e5 bd b5 cd e1 be
       -0.4085617 -0.26863596 -0.11214065 -0.44102255
0001e0 39 2e 99 be 19 31 be bf 33 ad f1 3d 50 f6 a4 be
       -0.29918078 -1.4858733 0.11800613 -0.32219172
0001f0 4d ae b2 be 62 b7 b0 be 6c 66 a6 3e 93 0c 2d bf
       -0.34898606 -0.3451491 0.32500017 -0.6759731
000200 7b c6 0b be b5 75 b8 be d6 52 68 3b 7a 15 b6 be
       -0.13649933 -0.36027303 0.0035449765 -0.3556326
000210 0f 3b f1 be ff a6 25 3e 7b a4 17 be b5 cd 19 bf
       -0.4711537 0.16176985 -0.14808838 -0.6007951
000220 99 a9 ff 3d 36 2d 8e be b5 2a 29 3e 0e 07 b9 3d
       0.1248352 -0.27768868 0.16520198 0.09034549
000230 74 67 59 bd bd f5 69 3e f8 d7 e6 be 8a 64 b8 be
       -0.053077176 0.22847648 -0.45086646 -0.36014205
000240 42 b0 e2 3c a4 4b aa 3c e3 5c bd 3d e3 af e6 3c
       0.027671937 0.020788021 0.09246232 0.028160041
000250 0b f7 17 3e f2 77 69 3e 60 d9 fe be f1 b2 ca be
       0.14840333 0.22799662 -0.4977522 -0.39589646
000260 78 98 94 bd dc c8 ab be d2 11 05 bc 6b 25 bc 3d
       -0.072556436 -0.3355168 -0.0081219245 0.091868244
000270 07 52 bd 3a b9 f1 cd 3c 84 23 0d bf 59 1b b5 be
       0.0014444002 0.025139676 -0.5513232 -0.35372427
000280 6d 56 86 3d d5 43 3c bf 8e 67 0a 3e ea d9 6e 3e
       0.06559453 -0.73541003 0.13516065 0.23325315
000290 0a 83 d5 ba 44 9b b5 3c 70 91 4b bb 82 e0 70 be
       -0.0016289663 0.022168763 -0.003106203 -0.23523143
0002a0 b1 e1 44 3f 64 cc 0c bf 32 15 6a 3e 2d db 81 3f
       0.7690688 -0.54999375 0.22859648 1.0145012
0002b0 8f 6c 1c bc f4 8a b1 3d 98 da 10 bf d4 dd 92 be
       -0.009547367 0.08669081 -0.5658355 -0.28684866
0002c0 65 ec 1e 3e 3c 39 8b be d3 f1 22 3e cc a7 bb 3e
       0.15519865 -0.27192104 0.15912561 0.36651456
0002d0 83 57 3a be 23 12 5b 3b 21 9b 42 be a7 7a d9 be
       -0.18197446 0.0033427558 -0.1900449 -0.4247639
0002e0 50 ea 88 3c c0 f7 1c bf 8c 2f ad bd 11 2f 95 3e
       0.016713291 -0.61315536 -0.084563345 0.2913747
0002f0 42 26 69 bc 88 94 28 3d 97 23 30 be d4 42 99 be
       -0.014230313 0.041157275 -0.17201076 -0.29933798
000300 9c 5a 28 bb c1 81 ed be d4 38 b7 3e af 07 ba 3e
       -0.0025688773 -0.46388057 0.35785544 0.36333987
000310 23 1a b2 3d c1 06 0a bd 08 03 ee be 92 c2 2b 3d
       0.086963914 -0.033697847 -0.46486688 0.041933604
000320 7c 74 b4 3e 5c 21 e6 be ff e9 3d 3e ef 01 81 3e
       0.3524512 -0.44947326 0.18546294 0.25196788
000330 c4 a6 a6 be e2 67 50 3e 60 6c b4 be 3b 4b d6 be
       -0.32549107 0.20352128 -0.35238934 -0.4185427
000340 bd 9a 17 bf 30 4d 9d bf 27 a5 67 3e f0 a4 d2 3e
       -0.59220487 -1.2289181 0.22621594 0.41141462
000350 db 53 e9 bd 2b 2a d4 bd fe 4d 06 be c0 17 3d be
       -0.11392947 -0.103596054 -0.13115689 -0.18466091
000360 59 4e 00 be 4b b9 26 be af 18 a0 3e 58 7b dc 3d
       -0.12529887 -0.16281621 0.31268832 0.107657135
000370 4d a0 75 be 52 e6 c3 3e 22 90 bd 3d 80 39 fd bc
       -0.23986931 0.38261658 0.09256007 -0.030911207
000380 0a 0d 23 be 31 55 9f bf f8 9a aa 3e cb e4 74 3f
       -0.15922943 -1.2447873 0.33321357 0.9566161
000390 47 f9 28 3f e3 6f 09 3d 24 a8 fa be 11 8a aa bf
       0.6600537 0.03355397 -0.48956406 -1.3323385
0003a0 5d b9 b2 3d 77 b2 37 bf 90 43 c6 3d 7f ab 7e 3d
       0.087267615 -0.7175669 0.09680855 0.06217527
0003b0 31 de ad be b1 80 05 3c 1a fb 64 be ad 96 ae be
       -0.3395858 0.008148358 -0.22361413 -0.34099331
0003c0 d0 09 93 be 80 a9 9c be 5e 11 3d 3d f5 e9 82 3e
       -0.28718424 -0.30598068 0.04615914 0.2556912
0003d0 08 0c 09 bf 81 aa 8d 3e 32 09 13 bf b0 e7 6b 3d
       -0.53533983 0.27669147 -0.57435906 0.057594
0003e0 91 b6 3a 3f f2 e3 9f bf 74 95 b9 3d 17 d0 41 3f
       0.72934824 -1.2491438 0.09061709 0.75708145
0003f0 72 e0 40 bf 65 91 06 be 36 b3 9a be 1f 9b f1 be
       -0.75342476 -0.13141401 -0.30214852 -0.4718866

affine.bias f4 [128]
000000 60 0e 91 bd f3 ab a7 be df 42 b3 be bb f4 b5 be
       -0.0708282 -0.32748374 -0.35011956 -0.35538277
000010 d8 48 5f bf 77 5d 48 bf aa c8 17 bf 08 ba 85 bf
       -0.87220526 -0.78267616 -0.59290564 -1.0447397
000020 ea f6 14 bf ec b5 f6 be 4d 74 27 bf cc 29 d4 be
       -0.5818926 -0.4818567 -0.65411836 -0.41438138
000030 53 d8 3a bf d9 56 5a bf 27 64 3c bf c2 c3 85 bf
       -0.72986335 -0.8528877 -0.7359032 -1.0450366
000040 a5 7f 48 bf 02 8e ff be 0d 9d d9 be b8 fa 3d bf
       -0.7831977 -0.4991303 -0.42502633 -0.7421069
000050 c0 cb ad be f6 f5 4d bf 9a 74 51 bf a8 cc 84 be
       -0.3394451 -0.8045343 -0.81818545 -0.2593739
000060 c0 b2 1e bf 35 ad 52 bf 6c d2 83 bf 8c 88 63 bf
       -0.619915 -0.8229554 -1.0298591 -0.8888023
000070 e8 32 19 bf 6a 0c 06 bf ce 51 20 bf 87 03 1d bf
       -0.598433 -0.5236269 -0.62624824 -0.6133351
000080 bf 65 79 bf 2a cb e4 be 65 52 75 bf e4 10 6e be
       -0.9742088 -0.44686252 -0.9582885 -0.23248631
000090 a6 8e eb be f0 f8 59 bf 11 21 19 bf ab bb 0c bf
       -0.4600727 -0.85145473 -0.5981608 -0.5497386
0000a0 8c df ca bf fd 11 db be be dd 08 bf e2 fa 36 bf
       -1.5849471 -0.4278716 -0.5346335 -0.71476567
0000b0 49 1a 3e bf 18 92 5e bf 66 59 15 bf be 51 83 bf
       -0.7425886 -0.8694167 -0.58339536 -1.0259321
0000c0 c9 90 91 3e 2f 6d b2 bf 64 26 e0 be 9f 4d 8a bf
       0.28430775 -1.393957 -0.4377929 -1.0804938
0000d0 88 64 5d bf ac 9c 03 bf 66 b6 ae be 17 2b 81 be
       -0.86481524 -0.5141094 -0.34123534 -0.25228187
0000e0 b0 29 82 bf 07 a6 f6 be 29 d2 da 3d 07 70 61 bf
       -1.0168972 -0.48173544 0.10684616 -0.88061565
0000f0 0a 1e 1d bf 81 8f 3b bf b8 60 64 bf 19 f2 3c bf
       -0.6137396 -0.73265845 -0.8921008 -0.7380691
000100 d4 82 18 bf e7 87 51 bf 97 8d 0a bf a9 1d a3 be
       -0.5957463 -0.81847996 -0.541223 -0.31858566
000110 90 f6 2d bf 3d 9b d8 be 67 a4 33 bf 27 1f 78 bf
       -0.6795435 -0.42305937 -0.70172733 -0.96922535
000120 87 ed d6 be cf 0b dc be da e3 22 bf 32 68 f5 be
       -0.41978094 -0.4297776 -0.63628924 -0.47931057
000130 89 e1 8f bf b2 18 a4 bf 49 19 35 bf c5 82 1a bf
       -1.1240703 -1.2820036 -0.7074171 -0.6035579
000140 bf f8 77 bf 5e 1f bd be cd fb 6f bf 4f 37 14 bf
       -0.9686393 -0.36937994 -0.9374359 -0.57896894
000150 d7 8b b4 be 1b 3b 82 bf 18 6b 4f bf bb 84 18 bf
       -0.3526294 -1.0174288 -0.8102279 -0.5957753
000160 3e 45 3c bf 05 b9 16 bf 83 e5 23 bf ba 39 13 bf
       -0.73543155 -0.5887607 -0.6402208 -0.5750996
000170 cd c9 01 bf 9a 52 e6 be 37 12 b5 be d8 4d 1c bf
       -0.5069855 -0.44984895 -0.3536546 -0.6105628
000180 a7 cb 38 bf ae 4d 27 bf e1 28 c1 be ee 37 d5 be
       -0.7218575 -0.65352905 -0.377265 -0.41644233
000190 7e 4a 02 bf 6d b5 18 bf aa 47 c1 3e 93 76 49 bf
       -0.50894916 -0.59651834 0.37749988 -0.78696555
0001a0 8c 9d 57 bf 91 8d 03 bf d0 28 d0 bc ad 90 24 bf
       -0.8422477 -0.5138789 -0.025410086 -0.6428326
0001b0 f0 37 2a be a7 93 89 bf c3 d2 43 bf 88 0d aa be
       -0.16622901 -1.0748185 -0.7649347 -0.3321345
0001c0 75 34 45 bf 36 ad 4e bf 76 db 35 bf c3 e3 85 bf
       -0.7703317 -0.8073305 -0.71037996 -1.0460132
0001d0 88 60 72 bf 3f 41 b0 be 0a e2 66 bf 9b 73 4f bf
       -0.94678545 -0.3442478 -0.9018866 -0.81035775
0001e0 3e 68 aa be 00 8b 5d bf c9 4e 79 bf e0 c7 4e bf
       -0.33282655 -0.8654022 -0.9738584 -0.80773735
0001f0 33 3a 29 bf 51 34 8e bf a1 d0 24 be 62 aa 71 be
       -0.6610443 -1.1109716 -0.1609521 -0.23600152

action_layer.weight f4 [4, 128]
000000 af 52 4a c0 ad 99 b9 be 1c 86 e7 be 0c 9e a8 3e
       -3.1612966 -0.36250058 -0.45219505 0.3293308
000010 77 a7 dc bd 24 ca 05 be 1d 47 a4 bd 48 26 ae be
       -0.10774129 -0.13065392 -0.08021376 -0.3401358
000020 34 fa 36 be c4 46 04 be 6c be 0e 3d a3 29 4e 3e
       -0.17868882 -0.1291762 0.03484957 0.2013307
000030 a6 aa 62 3e 24 5b 4b be 74 07 8b bc 62 db 0c bf
       0.2213541 -0.19858986 -0.016971327 -0.5502225
000040 d0 ce 13 3e 99 9d 1d bd be 40 96 be 85 7e cd bd
       0.14434361 -0.038480375 -0.2934627 -0.10033897
000050 70 22 24 be cd 27 82 bf a1 21 a0 be a5 94 14 be
       -0.16028762 -1.0168396 -0.31275657 -0.14509828
000060 a0 b7 a9 bd 30 f3 ba bd 01 0e df bd 1a 27 c0 bc
       -0.08286977 -0.091284156 -0.10891343 -0.023456145
000070 11 17 5a 3f 0f ad 91 3d ad fa cb bd a8 8b 52 bf
       0.85191447 0.071130864 -0.09959922 -0.8224435
000080 27 81 70 bd 48 03 75 3f 55 05 9d bd 2f 24 24 be
       -0.05871692 0.9570813 -0.07667033 -0.16029428
000090 90 d3 14 3d e3 37 08 3f 12 f0 69 bc 56 64 34 bf
       0.036334574 0.53210276 -0.014278429 -0.704656
0000a0 4e 62 35 be ac a9 ae 3c b9 86 e6 3d cf 2f aa bd
       -0.17713282 0.02132114 0.11256165 -0.083099
0000b0 ee 9e 89 be b5 78 2f be 35 30 f5 bd d1 8f c1 3d
       -0.26879066 -0.1713589 -0.119720854 0.09451259
0000c0 99 14 bc 3f f6 b8 10 3e 3c 32 61 bf 3a c2 5e bd
       1.4693786 0.14133057 -0.87967277 -0.054384448
0000d0 38 c2 e5 3e 98 0e 83 3d 15 aa 29 3e 9e db 1f 40
       0.4487474 0.06399268 0.16568787 2.4977794
0000e0 b2 4e 17 bf 18 14 a5 bd 68 6c 8c 3d b5 62 42 3e
       -0.59104455 -0.08060473 0.06856614 0.18982966
0000f0 20 c7 88 3e b9 4d ab 3c 35 fa 18 bd e4 e7 36 3e
       0.2671442 0.020911084 -0.03734799 0.17861897
000100 f4 6e c1 3c c8 b6 86 3f d8 af 7e bd 17 10 4d 3e
       0.023612477 1.052453 -0.062179416 0.20025669
000110 62 6b 41 3d 4a f4 1a 3d 12 a1 1e be de b4 26 3f
       0.04722155 0.03783063 -0.15491131 0.6511973
000120 b7 b0 d0 bd df d4 00 3d c6 f7 03 be 7d 2b cd be
       -0.10189956 0.03145301 -0.12887487 -0.4007224
000130 d2 02 01 bd b9 5c b2 be 1b 86 7d bd c7 47 b8 be
       -0.03149683 -0.34836367 -0.06189547 -0.35992262
000140 ef ec 26 be cb 01 0c bd 43 13 b3 be a7 4a 05 3e
       -0.1630132 -0.034181397 -0.34975633 0.13016759
000150 ee 43 85 bf 84 a6 55 be f6 42 cd 3c 7e e5 bd bc
       -1.0411355 -0.20864302 0.025056344 -0.02318072
000160 69 3a 25 be 4b 36 6c bf 18 c9 5d be 6b a4 22 be
       -0.16135563 -0.92270344 -0.21658742 -0.15883033
000170 01 be 45 be 20 1f 0e 3d 3a e9 5d 3d 48 25 08 40
       -0.19310762 0.034697652 0.0541775 2.1272755
000180 95 7f 05 3d 7e 3d 04 bf ea 5e 05 3e 8f f6 f6 3d
       0.032592375 -0.5165633 0.13024488 0.12058746
000190 7d d9 e0 bf 67 49 6b 3c 18 67 d0 3f 91 d4 9d bd
       -1.7566372 0.014360762 1.6281462 -0.077065594
0001a0 35 3b 81 3d cd 64 61 3e 57 f0 39 be 32 12 df bd
       0.06310121 0.22011109 -0.18158089 -0.10892142
0001b0 04 76 a1 bf 27 6e d1 3d 04 c3 04 be 0b db b8 3d
       -1.261414 0.10226088 -0.12965018 0.09026154
0001c0 f0 66 5f bd 6d c5 b0 bf 36 60 c1 be c0 6f 23 bd
       -0.05454153 -1.381025 -0.37768716 -0.039901495
0001d0 b5 d2 a2 be c7 5e 64 bc 20 b8 60 be e9 73 f5 bc
       -0.31801382 -0.013938612 -0.21945238 -0.029962497
0001e0 16 11 de bd 14 2e 65 3e 26 fc b4 be 1e 55 20 bf
       -0.10843103 0.22380859 -0.35348624 -0.6262988
0001f0 fa 72 23 be b6 e6 f9 3f 6f a2 53 bd ed 40 05 3e
       -0.15961829 1.9523532 -0.05166858 0.13013048
000200 9b 62 03 3d 1b f7 8a 3f f6 ad 74 3d 35 49 c9 3c
       0.03207646 1.0856661 0.059736215 0.02457104
000210 98 dd 90 3e 83 f3 32 3f ad a5 96 be 99 7d 07 3e
       0.28294063 0.6990282 -0.29423276 0.13231505
000220 32 10 bf be 1c dc b1 be 01 f6 07 bd e5 7f dd bd
       -0.37317044 -0.34738243 -0.033193592 -0.108154096
000230 08 a1 80 3e b3 46 79 3e af 49 18 3f 72 73 87 3f
       0.25122857 0.24343376 0.5948743 1.0582106
000240 c9 6b 0b bc a8 bf d8 be c0 53 05 3e d6 4b 56 be
       -0.008509585 -0.42333722 0.1302023 -0.20927367
000250 f2 09 b8 be 0e 74 3b 3f 5f d5 8f bc 14 3c fa bd
       -0.35945088 0.7322396 -0.017557798 -0.1221849
000260 08 f8 8b be 77 df 76 be bb da 38 3f 2c 2e 6f be
       -0.2733767 -0.24108683 0.72208756 -0.23357457
000270 96 77 74 3f cd d8 ad 3e 3b 25 68 bd 6e d6 c0 3f
       0.95494974 0.33954468 -0.05667613 1.5065439
000280 42 3d 21 be 0a 56 d7 bd 5a f4 46 be 5f e2 b8 bf
       -0.15746024 -0.105144575 -0.1942915 -1.4444083
000290 c1 83 b1 bb 70 5a 92 3e 21 f0 cb bd 8b e8 3c 3e
       -0.0054173176 0.28584623 -0.0995791 0.18448083
0002a0 2f 48 5a 3e 6d 29 7d be cb 47 d2 be ae ee ae 3e
       0.21316598 -0.24722834 -0.410704 0.34166473
0002b0 da 8c 12 3c 98 96 bb be 0c d9 2d 3e 1f d0 01 bf
       0.008944714 -0.3663833 0.16977328 -0.5070819
0002c0 ce 21 6c be 58 cc 3a 3e a9 31 fe 3e 10 22 0f bd
       -0.2305977 0.18242013 0.49647263 -0.034944594
0002d0 72 44 d3 be f7 07 4d be af 6e f2 3d 9c bb 2d bf
       -0.41263157 -0.2002257 0.118375175 -0.67864394
0002e0 14 8e df be 14 27 ed 3d b7 2b 3f c0 24 b1 28 be
       -0.43663085 0.11579719 -2.9870431 -0.16473824
0002f0 0e d5 61 3d 5b e0 15 bd ac fd 48 be 40 d5 56 3e
       0.055134825 -0.036590915 -0.19628018 0.20979786
000300 24 03 c0 be c1 17 b5 be 25 0b b0 be a2 45 fa bd
       -0.37502396 -0.35369685 -0.34383503 -0.12220313
000310 d5 a8 93 be 07 d6 94 bc 8b 11 98 3e 0f cc 9b bf
       -0.28839746 -0.018168462 0.29700884 -1.2171649
000320 9c 6e 17 be 94 6b d7 3d 79 2a fe 3e 96 3a 70 3a
       -0.14788288 0.10518566 0.4964178 0.00091640034
000330 a7 9d 8a 3e 38 08 a3 3c d8 68 9c 3d 3c 3b 3a bd
       0.27073404 0.01990138 0.07637185 -0.045466647
000340 da 5c 04 3d 3b 1c 07 3f ae 98 8e bd 63 7a ad be
       0.032315113 0.5277745 -0.06962715 -0.33882436
000350 90 c8 72 40 8b 28 a5 be 45 d1 c0 3d 30 3f 09 3f
       3.7934914 -0.32257494 0.09414915 0.5361204
000360 6e e0 2a be c7 50 ae bf 51 73 a0 bd d8 dc 00 bd
       -0.16687176 -1.3618401 -0.07834495 -0.031460613
000370 60 e6 a8 be 2e 2f 74 be 8c 33 33 3e 91 a0 02 bf
       -0.32988262 -0.23846123 0.17500132 -0.51026255
000380 d2 1b 22 3f 74 3d b8 be 39 43 4a bd 3f 8b 61 bd
       0.633237 -0.35984385 -0.049380515 -0.055064436
000390 28 0e 19 40 d1 b1 c7 3d e1 37 b0 bf d2 73 2c be
       2.391489 0.09750713 -1.3767053 -0.16841057
0003a0 ae 97 06 bf 14 e6 99 3e ef 2a 3f bf 56 8a 87 bd
       -0.52575195 0.30058348 -0.74674886 -0.06618182
0003b0 a5 2a 9e bf a7 b2 0a be 1a f4 4d bb 78 78 b2 bd
       -1.2356764 -0.13544713 -0.0031426013 -0.08714384
0003c0 f2 d7 cb bd 18 fd 4e be 58 d2 56 bf 5f 6f 99 bd
       -0.09953298 -0.20213735 -0.8391471 -0.074919455
0003d0 b0 e3 cd 3f da bb 38 be af 06 75 be 28 8d 38 be
       1.608511 -0.1804041 -0.23928331 -0.18022597
0003e0 ef 05 34 bd b0 02 8c be 83 0a 80 be e2 10 ea 3f
       -0.04395097 -0.273458 -0.2500802 1.8286402
0003f0 db 3e 0c be 87 73 dc bf 29 37 f0 3e 7b c7 2f 3e
       -0.13695852 -1.7222756 0.46917084 0.1716594

action_layer.bias f4 [4]
000000 8b ff b0 3f dc 85 96 bb 0e 10 e6 be 2f d6 cd 3e
       1.3827986 -0.004593594 -0.44934124 0.40202472

value_layer.weight f4 [1, 128]
000000 ab 83 a4 3d 66 40 57 3e 43 89 9d bd d1 3b b7 3d
       0.08032926 0.2102066 -0.07692196 0.08946956
000010 12 f3 57 bd c1 86 67 3d f9 78 da 3d 56 ea a1 3e
       -0.052722044 0.056524996 0.10667605 0.31624097
000020 15 89 71 bd 60 0e 08 be 83 99 3f be 8d da 29 3d
       -0.058968622 -0.13286734 -0.18710904 0.041468192
000030 b3 24 16 bd 8c 1e db 3e c7 f3 14 3e fd ae 28 3e
       -0.036656093 0.42796743 0.14546119 0.16473003
000040 05 94 2c 3e 0c 74 b8 bd 19 4f f9 3d e5 37 e0 bd
       0.1685334 -0.09006509 0.1217329 -0.10948161
000050 69 48 7d be 47 88 6e 3e 96 98 08 bd 17 0d 3a 3d
       -0.24734654 0.23294173 -0.033348642 0.04542264
000060 4a 9a 4c bd 5a 4f 46 3e b9 18 88 bb 17 cf c3 bd
       -0.04995183 0.19366208 -0.004153338 -0.09560984
000070 ac 56 f3 3d 17 5f a4 bd 59 31 e1 3d da f3 34 bd
       0.11881766 -0.080259494 0.109957404 -0.044177867
000080 24 03 72 bd 3b ec 9b 3d 79 52 32 bd 30 84 23 be
       -0.059085026 0.07613417 -0.043535683 -0.15968394
000090 af 18 96 3c 36 98 9f 3c 8a 65 eb bc b7 a3 d9 bd
       0.018322317 0.01948176 -0.028734941 -0.10626929
0000a0 e3 da 04 3f 36 f0 f0 3d 7a da 3e be ff 71 e5 bc
       0.51896495 0.117645666 -0.1863803 -0.02800846
0000b0 f8 69 3d 3d f9 22 4b bd c6 46 1d 3e 05 34 34 3e
       0.046243638 -0.0495939 0.15359029 0.17597969
0000c0 5e ac b2 3e b7 b7 10 3f 98 47 ce bc 80 c8 78 bd
       0.3489713 0.56530327 -0.025180623 -0.060738087
0000d0 6f 4d 51 3e d1 8b 5c 3c f4 2e ff bc 2b 09 f9 3d
       0.20439695 0.013461069 -0.031150319 0.12159952
0000e0 ab b8 f4 3c 4f 75 23 3d 8e a8 37 be ac 86 59 bd
       0.029873213 0.039906796 -0.17935392 -0.05310695
0000f0 17 07 1f 3e 0a 39 3a bd 88 16 0c be 86 05 0a 3d
       0.15530048 -0.045464553 -0.1368047 0.033696674
000100 b0 78 3f 3d 2c c7 0c 3f 9b ac 38 3d 5d fc 43 bd
       0.046745956 0.5499141 0.045086484 -0.047848094
000110 77 b0 db bc 2c 29 da 3c 8c 40 0e 3e 55 6f 43 3e
       -0.026817543 0.02663096 0.1389181 0.19085439
000120 78 e2 8d 3b 8f 6c da 3d da 1c 3d 3e 94 82 8e 3d
       0.0043299757 0.10665237 0.18468037 0.069584996
000130 cd 29 a3 3d 8c 88 be bc 8f 63 e1 3d 2e 48 20 bc
       0.07966957 -0.02325847 0.110053174 -0.009782834
000140 73 b9 ac 3e d6 f4 7f 3d 66 44 ea 3a 29 8d ab bd
       0.33735237 0.062489353 0.0017873168 -0.083765335
000150 e7 68 09 bd 8d 4f 79 3c ac a5 64 3e 08 d5 8d 3c
       -0.03354731 0.01521672 0.22328824 0.017313495
000160 1a bb 24 be 77 40 7b 3e 2f bb 9e bd fa 89 7e ba
       -0.16086999 0.2453631 -0.07750546 -0.0009709891
000170 94 8f 77 3d 4d 10 06 bd b8 19 c0 3d 62 92 31 be
       0.06043966 -0.03273039 0.093799055 -0.17340997
000180 50 74 25 3d 32 53 a1 3d 00 83 24 bd 26 d7 0d 3e
       0.040394127 0.07877196 -0.040163994 0.13851604
000190 c5 97 23 3f 3f fc ba 3d aa 1f f1 3e 40 80 38 be
       0.63903457 0.091301434 0.4709447 -0.18017673
0001a0 6d d1 5b 3e 57 83 4a 3e 67 cc 76 bd 7d a6 21 bd
       0.21466608 0.19776665 -0.060253527 -0.039465416
0001b0 78 4b b5 bc 4d ad 31 bd 50 d9 1c bd be 09 90 3b
       -0.022130713 -0.043378163 -0.038293183 0.0043956926
0001c0 4a 20 22 3e 73 2f 36 3f 44 67 de 3d 2e 42 9a 3d
       0.1583263 0.7116615 0.1085954 0.07532154
0001d0 84 77 70 be e6 ab 06 be 2a 1d ee bd a1 9b 03 3e
       -0.23483092 -0.13151512 -0.11626656 0.12852336
0001e0 0f 89 15 3e bc af 08 3d 7f e8 d0 3c 83 7f 5d 3e
       0.14603065 0.03337072 0.025501488 0.21630673
0001f0 65 dc ab bb 85 a3 74 be 31 84 b3 3d e1 67 cf bb
       -0.005244779 -0.23890503 0.08765448 -0.006329522
