preTrained/LunarLander_TWO.pth (torch_old, 8172 bytes, 5 tensors)

affine.weight f4 [128, 8]
0	0xbdcc9ff5	-0.09991447
1	0xbfbcd9ed	-1.4754006
2	0xbdc1c9ec	-0.09462342
3	0xbe889a34	-0.26680148
4	0xbe86f4b4	-0.2635857
5	0xbf273cb3	-0.65326995
6	0x3eb403d2	0.35159165
7	0x3ec36403	0.3816224
8	0x3e0251e6	0.12726554
9	0xbe8ae543	-0.27128038
10	0xbd12df25	-0.03585734
11	0xbd984ed1	-0.07436908
12	0xbe4825c5	-0.19545658
13	0x3e48ada7	0.19597493
14	0xbe57308d	-0.21014614
15	0x3d106241	0.035249952
16	0xbc6dbc19	-0.014510178
17	0xbe4170b2	-0.18890646
18	0xbddaf60b	-0.1069146
19	0xbd928ab5	-0.071553625
20	0xbd995d10	-0.074884534
21	0xbcf30eb7	-0.029670103
22	0xbe7dece4	-0.24797398
23	0xbe03bd70	-0.12865233
24	0xbd397530	-0.045277774
25	0xbe9a5900	-0.30146027
26	0xbd6aad5a	-0.057294227
27	0x3e94f6b0	0.29094458
28	0xbd828751	-0.06373466
29	0x3dad8ee9	0.084745236
30	0xbe848674	-0.2588383
31	0x3e5318cd	0.2061493
32	0xbef7b878	-0.48382926
33	0xbf9571ee	-1.1675394
34	0xbe0cf3c8	-0.1376487
35	0xbdc39a88	-0.09550959
36	0x3f7a6b60	0.9782009
37	0x3f26f636	0.6521944
38	0x3e49d2ef	0.19709371
39	0xbe5cbffa	-0.21557608
40	0xbd7e25ae	-0.062047653
41	0xbe0ad025	-0.13555963
42	0xbe0c5f54	-0.1370824
43	0xbdb20fe8	-0.0869444
44	0xbe83ad07	-0.25717947
45	0x3e1a7fa6	0.15087757
46	0xbe1ce18f	-0.15320419
47	0xbe842f63	-0.25817403
48	0x3e24c955	0.16092427
49	0xbf0f594c	-0.5599563
50	0xbd375d90	-0.044766963
51	0x3c3ab3cc	0.011395406
52	0xbe9bef94	-0.3045622
53	0x3c683090	0.014171734
54	0xbee34c9e	-0.44394392
55	0x3e4a016c	0.19727105
56	0xbe98fee9	-0.2988198
57	0xbea54fe7	-0.32287523
58	0xbe880e05	-0.26573196
59	0x3dee7b2b	0.11644586
60	0x3df36e72	0.118863
61	0x3ca654b6	0.020304065
62	0xbe977e6e	-0.29588646
63	0xbd67428c	-0.05645995
64	0xbf45403c	-0.7705114
65	0xbdb2ada5	-0.08724526
66	0xbf3fbac9	-0.74894387
67	0xbead2812	-0.33819634
68	0x3e9be2fb	0.3044661
69	0xbfb83d36	-1.439368
70	0x3cf0b0a2	0.0293811
71	0x3beb6952	0.007184186
72	0xbe4cece6	-0.20012245
73	0xbee750ff	-0.45178983
74	0x3d1de9c9	0.038553033
75	0x3eaea1d2	0.34107834
76	0xbd1510ef	-0.036393102
77	0x3e005eea	0.12536207
78	0xbe744d2c	-0.23857564
79	0xbef69b2a	-0.48165256
80	0xbcb4dfa0	-0.022079289
81	0xbe6e5b99	-0.23277129
82	0xbd4067bf	-0.04697394
83	0x3e9c3af0	0.30513716
84	0xbe65b3a7	-0.22431813
85	0x3dfdfea1	0.12402082
86	0xbf090804	-0.53527856
87	0x3e15e194	0.14636832
88	0x3eda03d2	0.4258104
89	0xbea8d5aa	-0.32975513
90	0x3ef2ae75	0.47398725
91	0xbd2a5c13	-0.041591715
92	0xbe5d75be	-0.21626946
93	0x3f0e8925	0.55678016
94	0xbe03fe19	-0.128899
95	0xbf16e7fe	-0.5894774
96	0xbda0d14b	-0.078524195
97	0xbe10643c	-0.14100736
98	0x3dec4f15	0.11538521
99	0x3ec3a7eb	0.3821405
100	0xbee844cf	-0.45364997
101	0xbe2af989	-0.16696753
102	0xbe8f1e12	-0.2795263
103	0xbf07ec5c	-0.5309503
104	0x3d64dabe	0.05587267
105	0x3c01a0d7	0.007911882
106	0xbe315d79	-0.17320813
107	0x3f3d5418	0.7395644
108	0xbdd1fcbf	-0.102532856
109	0xbe1dc056	-0.15405402
110	0xbf183ec7	-0.5947079
111	0xbe7da7e9	-0.24771084
112	0x3e6c1e1f	0.23058365
113	0xbf23ef6e	-0.64037216
114	0x3e8652f0	0.2623515
115	0xbed7b39d	-0.42129222
116	0xbe373487	-0.17891131
117	0xbdba953c	-0.091104954
118	0xbf02ac52	-0.5104419
119	0xbf061d27	-0.5238823
120	0x3f3b41db	0.7314736
121	0xbf141d9f	-0.578577
122	0xbea5d6a0	-0.32390308
123	0xbfed1da7	-1.8524674
124	0xbfad0eb4	-1.3520112
125	0xbf21eacc	-0.63248897
126	0xbee997df	-0.4562368
127	0xbf78021f	-0.96878237
128	0xbde096f1	-0.1096629
129	0xbd70265c	-0.058630332
130	0xbdd71c67	-0.10503464
131	0x3ecf897e	0.40534586
132	0xbd51dfb7	-0.05123874
133	0xbd6a0c60	-0.057140708
134	0xbd583df1	-0.052793447
135	0x3e7ce820	0.24697924
136	0xbe30d700	-0.17269516
137	0xbe1a9134	-0.15094453
138	0x3df24bbe	0.11830853
139	0x3e81070b	0.25200686
140	0xbd5bbbfc	-0.053646073
141	0x3e9564b4	0.29178393
142	0x3e776c58	0.24162424
143	0xbf2a0be1	-0.66424376
144	0xbbfb687e	-0.0076723685
145	0xbf2eb657	-0.6824698
146	0x3e2d0bea	0.16899076
147	0xbeae67ce	-0.34063572
148	0xbebc9e05	-0.3683931
149	0x3e582372	0.21107271
150	0xbe6bfb34	-0.23045045
151	0xbee87dbe	-0.45408434
152	0x3e3cfc42	0.18455604
153	0xbea72438	-0.3264482
154	0x3aa6b166	0.0012717664
155	0x3da25af6	0.07927506
156	0x3cfcbf18	0.03085284
157	0x3e45dffe	0.19323727
158	0xbd173e5e	-0.036924712
159	0xbee70b3c	-0.4512576
160	0x3e7d0a61	0.2471099
161	0xbff088a4	-1.87917
162	0xbc8b4ab5	-0.017003397
163	0x3e8d41c7	0.27589247
164	0xbf49fd15	-0.789018
165	0x3e5e93d1	0.21736075
166	0x3f970ec6	1.1801383
167	0xbedae9ee	-0.427566
168	0x3d837e58	0.064205825
169	0xbf03ba43	-0.5145609
170	0xbe714ed2	-0.23565224
171	0x3f4e0c8d	0.804879
172	0xbe926dc7	-0.28599378
173	0xbc164e0c	-0.009173881
174	0xbe4e106b	-0.2012345
175	0xbead6bdb	-0.3387135
176	0xbd6508ab	-0.05591647
177	0xbf4c2619	-0.7974563
178	0xbe05d39f	-0.13069008
179	0xbe4e282a	-0.20132509
180	0x3dd29160	0.10281634
181	0x3df520aa	0.11969121
182	0xbe2ae49e	-0.16688773
183	0x3e01cdcf	0.12676166
184	0xbda00322	-0.078130975
185	0xbf939ab8	-1.1531591
186	0xbdf87901	-0.12132455
187	0xbe72a322	-0.23695043
188	0xbdccdd78	-0.10003179
189	0xbee018c8	-0.43768907
190	0xbd86cb10	-0.065817
191	0xbeb8f626	-0.36125296
192	0x3e84cdb2	0.25938183
193	0xbdcc5941	-0.09977961
194	0xbc697b3b	-0.014250572
195	0x3da51154	0.08059946
196	0x3e06a8ea	0.13150373
197	0xbd25168f	-0.040304717
198	0xbe9a8944	-0.3018285
199	0xbdb71ea1	-0.08941389
200	0xbe4c8a4d	-0.19974633
201	0xbc2a9e33	-0.010413694
202	0xbe32012c	-0.1738326
203	0x3d1c17ed	0.038108755
204	0x3eed577d	0.4635581
205	0x3ebcc2b0	0.36867285
206	0xbf127e28	-0.5722375
207	0xbdb63c7b	-0.088982545
208	0x3e0bca6c	0.13651437
209	0xbe91dc49	-0.28488377
210	0xbd2809ae	-0.041024856
211	0xbb990265	-0.004669475
212	0x3d6809cd	0.05664997
213	0x3c5030ea	0.0127069745
214	0xbef46521	-0.47733405
215	0xbe201fec	-0.15637177
216	0x3c9034a2	0.017603222
217	0xbf1f91d6	-0.62331903
218	0x3eaaf3b9	0.3338907
219	0x3ef06c39	0.46957567
220	0xbe1161aa	-0.14197412
221	0x3e0da845	0.13833721
222	0xbca00d14	-0.019537486
223	0xbf929365	-1.1451231
224	0x3d7dc578	0.0619559
225	0xbf28ed25	-0.65986854
226	0xbe12d0fc	-0.14337534
227	0xbe20184d	-0.1563427
228	0xbecfd439	-0.405916
229	0xbde655d0	-0.11246836
230	0xbe5333e9	-0.20625271
231	0xbe87b8e4	-0.26508248
232	0x3d951041	0.07278491
233	0xbf43ec83	-0.76532763
234	0xbddffbe1	-0.10936714
235	0xbe07fd74	-0.13280278
236	0x3e1dd451	0.15413024
237	0xbe001af7	-0.12510286
238	0xbf16f523	-0.589678
239	0xbedc4a3c	-0.43025386
240	0x3e86332d	0.2621092
241	0xbe95667f	-0.2917976
242	0x3ee889f4	0.4541775
243	0x3ee30de4	0.44346535
244	0xbe017d26	-0.12645397
245	0xbe8a99cf	-0.27070472
246	0xbd5c33f1	-0.053760473
247	0xbb7d5272	-0.0038653878
248	0xbea8fb01	-0.33004
249	0xbf4a191a	-0.7894455
250	0x3d724109	0.059144054
251	0x3e7b4fce	0.24542162
252	0x3e721bfa	0.23643485
253	0x3e2e3963	0.17014079
254	0xbea1373a	-0.31487447
255	0x3e18da66	0.14927062

affine.bias f4 [128]
0	0xbe07df00	-0.13268661
1	0xbed58b1a	-0.4170769
2	0xbe611f2b	-0.21984546
3	0xbea78a17	-0.32722542
4	0xbec2aaa8	-0.38020825
5	0xbf03f12f	-0.5153989
6	0xbf06e81f	-0.5269794
7	0xbf2db8fa	-0.67860377
8	0xbe1b9791	-0.15194537
9	0xbf50dbe2	-0.81585515
10	0xbeab5f69	-0.3347123
11	0xbf235a07	-0.63809246
12	0xbe3caaf0	-0.18424582
13	0xbec49fac	-0.3840307
14	0xbf4320ce	-0.7622193
15	0xbdf53035	-0.119720854
16	0xbeff194b	-0.49823985
17	0xbf3c6346	-0.7358898
18	0xbe98ea37	-0.29866192
19	0xbe97fa94	-0.29683363
20	0x3de0ebb0	0.10982454
21	0xbed31048	-0.4122336
22	0xbf2fbec8	-0.68650484
23	0xbea7e99c	-0.32795417
24	0xbec4c46d	-0.3843111
25	0xbf075e9b	-0.5287873
26	0xbea0e88e	-0.31427425
27	0xbeb461d3	-0.35230884
28	0xbeda51f5	-0.42640653
29	0xbf0d202f	-0.55127233
30	0xbf47ed0d	-0.78096086
31	0xbf23ef10	-0.64036655
32	0xbf1d0a82	-0.6134416
33	0xbf0d6dc7	-0.5524563
34	0x3e8d1c1b	0.27560505
35	0xbea73265	-0.32655635
36	0xbf5a6bc8	-0.8532071
37	0xbf3f5971	-0.7474585
38	0xbed12d9f	-0.4085512
39	0xbe68b016	-0.22723421
40	0xbf40e352	-0.75346863
41	0xbf176b23	-0.5914785
42	0xbe407035	-0.18792804
43	0xbef83e0f	-0.48484847
44	0xbf3050db	-0.68873376
45	0xbf23b055	-0.63940936
46	0xbf2bea68	-0.6715455
47	0xbed5965b	-0.41716275
48	0xbf0207da	-0.5079323
49	0xbf026cf3	-0.50947493
50	0xbf00569c	-0.50132155
51	0x3ddb176c	0.10697827
52	0xbf044e6b	-0.51682156
53	0xbf54e6e2	-0.831648
54	0xbf3f6f48	-0.74779177
55	0xbf051099	-0.5197845
56	0xbf0bbbda	-0.54583514
57	0x3ef161f1	0.47145036
58	0xbf11104e	-0.56665504
59	0xbf412e40	-0.75461197
60	0xbe811930	-0.2521453
61	0xbf0e4090	-0.55567265
62	0xbf0c140d	-0.54718095
63	0xbf19da36	-0.6009859
64	0x3ee95214	0.45570433
65	0xbf85b37d	-1.04454
66	0xbf2e0e7b	-0.67990845
67	0xbd44a3d0	-0.048007786
68	0xbeb0133d	-0.34389678
69	0xbe23382d	-0.15939398
70	0xbf3ee80a	-0.74572814
71	0xbeff13ab	-0.49819693
72	0xbf31e56b	-0.6949069
73	0xbed62dc8	-0.41831803
74	0xbf102732	-0.5630981
75	0xbdfd1dcf	-0.12359201
76	0xbd85fd4d	-0.06542454
77	0xbf166324	-0.58745027
78	0xbf160592	-0.5860225
79	0xbf2e9d7e	-0.68209064
80	0xbf4acc87	-0.79218334
81	0xbee33930	-0.44379568
82	0xbe84ae0f	-0.25914046
83	0xbebdcb2a	-0.37069064
84	0x3e33682c	0.17520207
85	0xbf17179c	-0.590204
86	0xbedeb677	-0.43498585
87	0xbf13bbe3	-0.5770857
88	0xbecc84bf	-0.39945027
89	0xbf573b89	-0.8407522
90	0xbeae6ac0	-0.3406582
91	0xbed5abd8	-0.4173267
92	0xbf0e7efa	-0.556625
93	0x3e062231	0.1309898
94	0xbe6debad	-0.23234434
95	0x3e561101	0.20904924
96	0xbf1128e5	-0.56703025
97	0xbee44727	-0.44585535
98	0xbeaa9087	-0.3331339
99	0xbebb967f	-0.36638257
100	0xbe9967fd	-0.2996215
101	0xbf53e140	-0.8276558
102	0xbf56b37d	-0.8386763
103	0xbf28ec5c	-0.65985656
104	0x3e02dc9d	0.1277947
105	0xbed5bb90	-0.4174466
106	0xbf20b450	-0.62775135
107	0xbedb365e	-0.42814916
108	0xbe1ce445	-0.15321453
109	0xbf0aa6ea	-0.5416094
110	0xbee0c40e	-0.43899578
111	0xbf04bf7d	-0.5185469
112	0xbe8ae0e1	-0.27124694
113	0xbf1e94f5	-0.6194604
114	0xbf0a2bbb	-0.5397298
115	0xbf6762b2	-0.9038497
116	0xbef902db	-0.4863499
117	0xbf2182dd	-0.63090307
118	0x3e6e9208	0.23297894
119	0xbf0c08d4	-0.5470097
120	0xbeef3cc8	-0.4672606
121	0xbef8840f	-0.48538253
122	0xbefb5fd8	-0.4909656
123	0xbf368f43	-0.7131235
124	0xbe50a67e	-0.20376012
125	0xbeca102a	-0.39465457
126	0xbf0fe464	-0.5620787
127	0xbf5b10f5	-0.8557275

action_layer.weight f4 [4, 128]
0	0x3fab4b7a	1.3382409
1	0x3d50e929	0.05100361
2	0x3e29be72	0.16576555
3	0x3e08f260	0.13373709
4	0xbe8fc4c5	-0.2807981
5	0x3c8ca25e	0.017167266
6	0x3e19baa7	0.15012608
7	0x3e27efc6	0.1640006
8	0x3f0f4000	0.5595703
9	0xbed97d64	-0.42478478
10	0x3ea32c44	0.3186971
11	0x3e5d6318	0.21619833
12	0x3f06433e	0.52446353
13	0x3ec85e17	0.39134285
14	0x3cba149a	0.022714902
15	0xbefe89e4	-0.49714577
16	0x3e893029	0.26794556
17	0x3e16b1c4	0.1471625
18	0x3e57cfe6	0.210754
19	0x3dcc0ccc	0.09963378
20	0x3c554106	0.013015991
21	0xbccaa352	-0.02473608
22	0xbec03299	-0.37538603
23	0xbef6303d	-0.48083678
24	0x3d9b7fa9	0.075927086
25	0x3c1c7fab	0.009551923
26	0xbdbf4513	-0.09339347
27	0x3ee8e780	0.4548912
28	0xbdee81fc	-0.11645886
29	0x3e2ec8d6	0.170688
30	0xbe5c9e1d	-0.2154469
31	0xbf02f66a	-0.5115725
32	0x3ef7c899	0.4839523
33	0x3da2792e	0.079332694
34	0xbe0c0600	-0.13674164
35	0xbd22c7bf	-0.039741274
36	0x3d20bb2c	0.039241
37	0xbd39a1c3	-0.045320284
38	0x3be09e2f	0.0068547945
39	0xbeed1354	-0.4630381
40	0x3e2847b3	0.16433601
41	0xbfb1b7fb	-1.3884271
42	0xbed1be23	-0.40965375
43	0x3e409d29	0.18809952
44	0xbf1bae8c	-0.6081321
45	0x3fc55bca	1.5418637
46	0x3e3803fb	0.17970268
47	0xbd52232c	-0.051303074
48	0xbd99c438	-0.07508129
49	0x3c4af5e0	0.012387723
50	0x3da2a3ed	0.079414226
51	0xbe60f919	-0.21970023
52	0x3f4622c1	0.7739678
53	0xbeb25d50	-0.34836817
54	0x3f415a62	0.7552854
55	0xbde2adb2	-0.11068286
56	0x3e8ef33e	0.27919954
57	0xbf3d96d9	-0.740583
58	0x3dc6c26e	0.09705053
59	0xbc65c606	-0.014024263
60	0xbeec5fe0	-0.46166897
61	0xbe9fcda5	-0.31211582
62	0x3e117d93	0.14208059
63	0xbd925410	-0.0714494
64	0xbf37f842	-0.71863186
65	0xbefeafda	-0.4974354
66	0xbb2fe8e8	-0.0026841704
67	0xbf963e96	-1.173785
68	0xbdfaba77	-0.122425966
69	0x3ff775c6	1.9332817
70	0xbf1e99b4	-0.6195328
71	0xbeffeddb	-0.49986157
72	0x3e11b508	0.14229214
73	0x3f4f2b2e	0.8092526
74	0xbe0afeec	-0.13573807
75	0x3db4b0a7	0.08822756
76	0x3f8d3ee4	1.1034818
77	0xbf4a7921	-0.7909108
78	0x3dd8de67	0.10589295
79	0x3e8bd81e	0.27313322
80	0xbdd2831b	-0.10278913
81	0x3e15b363	0.14619212
82	0x3d2e11f9	0.04249761
83	0x3e411acf	0.18857883
84	0xbf9286ff	-1.1447448
85	0xbfa4c70a	-1.2873242
86	0x3dad6344	0.08466199
87	0x3e61a668	0.22036135
88	0xbe4bfb48	-0.19920075
89	0xbe0b70ea	-0.13617292
90	0xbe20305d	-0.15643449
91	0xbde8ad47	-0.11361175
92	0x3d9b4559	0.075815864
93	0xbed64be9	-0.4185479
94	0x3e826055	0.2546412
95	0x3f388874	0.7208321
96	0xbe6cdebc	-0.23131841
97	0x3e4b762c	0.19869298
98	0xbde7ff21	-0.11327959
99	0xbd1052d7	-0.035235252
100	0x3dd16a8f	0.102254026
101	0xbe66adb0	-0.22527194
102	0x3e65ad83	0.2242947
103	0xbf01822d	-0.5058926
104	0x3d6e6d19	0.058209512
105	0xbdf0bc0e	-0.117546186
106	0x3e643f64	0.22289807
107	0x3e875da5	0.26438633
108	0xbf369ad7	-0.71330017
109	0x3d2ee2c5	0.042696733
110	0x3d31bb6c	0.04339163
111	0x3eb66ca3	0.35629758
112	0xbe8f1825	-0.27948108
113	0x3df16e66	0.11788635
114	0x3d051e22	0.03249944
115	0x3da65356	0.08121364
116	0x3f087edf	0.5331859
117	0xbe870ca8	-0.26376843
118	0xbda8219f	-0.08209538
119	0x3eb10c73	0.3457981
120	0x3d929259	0.0715682
121	0x3deda284	0.11603263
122	0x3c410f4f	0.011783435
123	0xbe052e10	-0.13005853
124	0xbdcdae8d	-0.100430585
125	0x3fa79ef4	1.3095384
126	0x3e3de5f2	0.18544748
127	0x3ed95314	0.42446196
128	0xbf031d50	-0.512166
129	0xbb46cf94	-0.0030336129
130	0xbdba8b2e	-0.09108578
131	0xbe83d6de	-0.25749868
132	0xbf831571	-1.0240918
133	0xbcf4ea4d	-0.02989688
134	0xbe51315e	-0.20428988
135	0xbe32c4eb	-0.1745793
136	0xbf517d3b	-0.8183171
137	0xbdbb50d7	-0.09146278
138	0xbd592b24	-0.053019658
139	0x3e675c42	0.22593787
140	0x3e9042ca	0.28175956
141	0x3e730524	0.2373243
142	0xbda0e606	-0.078563735
143	0x3f22fdf4	0.6366875
144	0xbe422b4a	-0.18961826
145	0xbe6d71e4	-0.23187977
146	0x3d680f74	0.056655362
147	0x3b1c9cd7	0.0023897195
148	0xbda0899b	-0.07838746
149	0xbee72ac6	-0.4514982
150	0xbe2ed269	-0.17072453
151	0xbd802018	-0.062561214
152	0xbeb0f05e	-0.34558386
153	0xbeb16deb	-0.34654173
154	0xbcc6c649	-0.024264472
155	0x3e7b0998	0.24515378
156	0x3db37d37	0.08764117
157	0xbd908c6c	-0.07058033
158	0xbec3951d	-0.38199702
159	0x3e4e3523	0.20137458
160	0xbc384472	-0.011246787
161	0x3cf3e5d6	0.02977268
162	0x3ffd604a	1.979501
163	0xbb1cb3c9	-0.0023910871
164	0xbf9b048c	-1.2110763
165	0x3fbce836	1.4758365
166	0xbebb53dd	-0.3658742
167	0xbe8d7b8e	-0.27633327
168	0xbe53b4a4	-0.20674378
169	0xbded66d8	-0.115918815
170	0xbe4cc2e2	-0.19996217
171	0x3c54ade6	0.012980914
172	0x3e730dbb	0.23735707
173	0xbfc525cd	-1.5402161
174	0xbe6b946e	-0.2300584
175	0x3c87d5bc	0.016581409
176	0xbd2ea3f2	-0.04263682
177	0xbd13096d	-0.03589766
178	0x3dce629c	0.10077402
179	0xbff5fbc0	-1.9217453
180	0x3f1a97c9	0.60387856
181	0x3f2340ac	0.63770556
182	0xbe861091	-0.26184514
183	0x3d2fc562	0.04291285
184	0xbd19170d	-0.0373755
185	0xc00592d2	-2.0870862
186	0xbd5956b8	-0.053061217
187	0xbe520144	-0.20508295
188	0xbf470568	-0.77742624
189	0x3d3706e3	0.044684302
190	0xbe3cba7f	-0.18430518
191	0xbc8c2f57	-0.017112417
192	0x3ea18421	0.3154612
193	0x3ca6109a	0.020271588
194	0xbe83c5c4	-0.2573682
195	0x3f222f54	0.63353467
196	0x3d7e6dd2	0.06211645
197	0xbfc084b5	-1.5040499
198	0x3ce22f5f	0.027610479
199	0xbf352a2a	-0.7076746
200	0xbd113d49	-0.035458837
201	0x3f697708	0.9119725
202	0xbe3f9ba5	-0.18711717
203	0xbecfc269	-0.4057801
204	0xbfbbda3d	-1.4675976
205	0x3ebec376	0.372585
206	0xbe891d16	-0.26780003
207	0xbe22312a	-0.15839067
208	0x3ec0aa64	0.37629998
209	0xbe0d9b43	-0.13828759
210	0xbc9813dd	-0.018564159
211	0x3db7b12a	0.08969338
212	0xbe88dc6c	-0.2673067
213	0xbe5c19e4	-0.21494251
214	0x3cdd9b6a	0.027051646
215	0xbd084175	-0.03326555
216	0x3da985af	0.08277451
217	0xbe60f0eb	-0.21966903
218	0xbeb150a6	-0.34631842
219	0xbc2aff13	-0.010436791
220	0xbde3b136	-0.11117785
221	0xbe684b53	-0.22684984
222	0xbee28b33	-0.44246826
223	0xbe491c11	-0.19639613
224	0x3d69726d	0.05699389
225	0x3e06b783	0.13155942
226	0xbe665b6a	-0.22495809
227	0xbc000d64	-0.007815693
228	0xbc926a66	-0.017873
229	0xbe19a003	-0.15002446
230	0xbe54479b	-0.2073044
231	0xbd2f4aef	-0.04279607
232	0xbcb31130	-0.021858782
233	0x3d137080	0.03599596
234	0xbb7a1ddf	-0.0038164777
235	0xbe15a13c	-0.14612287
236	0xbf8a99e6	-1.0828216
237	0xbc2ca885	-0.010538225
238	0xbe0bba6a	-0.1364533
239	0xbe01b739	-0.1266755
240	0xbc07ac50	-0.008280829
241	0xbd16e236	-0.036836825
242	0xbdd8ba5b	-0.105824195
243	0xbe13a8be	-0.14419839
244	0xbe81e4ac	-0.25369775
245	0xbe7573e0	-0.23969984
246	0xbea3d5b7	-0.3199899
247	0xbe9c8fbf	-0.3057842
248	0x3cb8a8f8	0.022541508
249	0xbcca13ab	-0.024667582
250	0x3e84ab33	0.25911865
251	0xbe37efb9	-0.1796254
252	0xbe1520d8	-0.1456331
253	0xbf821855	-1.0163676
254	0xbc1410fb	-0.009037252
255	0xbec36281	-0.3816109

action_layer.bias f4 [4]
0	0x3e98c5be	0.29838365
1	0x3d337e42	0.04382158
2	0xbd59164a	-0.052999772
3	0xbe233048	-0.15936387

value_layer.weight f4 [1, 128]
0	0xbc993932	-0.01870403
1	0x3d00d37c	0.031451687
2	0xbbbc49fe	-0.0057461252
3	0xbc95912b	-0.018257698
4	0xbe15187b	-0.1456012
5	0xbe040b8f	-0.12895034
6	0x3dd6e008	0.10491949
7	0x3df4e3d5	0.11957518
8	0xbe160ece	-0.14654085
9	0x3b203e32	0.0024451134
10	0xbe1a9727	-0.15096723
11	0xbe5449b8	-0.20731246
12	0x3bb2d9ac	0.0054580774
13	0xbd762196	-0.060090624
14	0x3f0dc64f	0.5538072
15	0x3e99f02d	0.30066052
16	0x3d6347a3	0.05548824
17	0xbeaefc68	-0.34176946
18	0xbd771d36	-0.060330592
19	0xbc9676df	-0.018367229
20	0x3e729644	0.23690134
21	0xbd25f198	-0.040513605
22	0x3b497457	0.003073951
23	0xbdb30d4f	-0.08742773
24	0xbc9b7be1	-0.018979969
25	0xbe096a58	-0.13419473
26	0x3a7d5ef7	0.0009665335
27	0xbe42a281	-0.19007303
28	0xbd1f01c8	-0.038820058
29	0x3d9d2045	0.076721705
30	0x3ed3ba90	0.41353273
31	0xbdc886f3	-0.097913645
32	0xbd5bd5d6	-0.053670727
33	0x3d623632	0.055227466
34	0xbefcc3ac	-0.49368036
35	0xbbeb3378	-0.0071777664
36	0xb9a681eb	-0.00031758784
37	0x3f49e1ff	0.7886047
38	0xbcb64857	-0.022251291
39	0x3e3f8bc7	0.18705665
40	0x3d969886	0.0735331
41	0xbe8d461a	-0.27592546
42	0x3de420a7	0.111390404
43	0x3e3fd07b	0.18731873
44	0x3d93d3dc	0.07218143
45	0x3d938707	0.07203489
46	0xbe245d40	-0.16051197
47	0x3da88926	0.08229284
48	0xbd66647d	-0.056248177
49	0xbd49126c	-0.049089834
50	0x3d39bc50	0.045345604
51	0xbe34bc9d	-0.17650075
52	0xbc2162bf	-0.009850203
53	0x3e6fdb3f	0.2342348
54	0xbe811643	-0.25212297
55	0xbd18640d	-0.03720479
56	0xbdd38294	-0.1032764
57	0xbeb416c1	-0.3517361
58	0x3c2478b3	0.010038543
59	0xbd457627	-0.048208382
60	0x3d4b0824	0.04956831
61	0xbe2afe43	-0.16698556
62	0xbbde5e31	-0.006786131
63	0xbe14da3b	-0.14536373
64	0x3f741ea9	0.95359284
65	0x3dd27343	0.10275891
66	0xbd933293	-0.07187381
67	0xbecb5f1c	-0.39721
68	0xbda2d0da	-0.079499915
69	0x3e634dbc	0.22197622
70	0x3e2e37b1	0.17013432
71	0xbe4c1435	-0.19929583
72	0x3e3968e5	0.1810642
73	0x3cce89ed	0.025212253
74	0x3dfad83e	0.12248276
75	0xbd33c934	-0.043893054
76	0xbc243ce3	-0.010024282
77	0xbe8326ca	-0.2561553
78	0xbcd54a17	-0.026036305
79	0xbe468355	-0.19386037
80	0x3e17c41e	0.14820907
81	0x3da7aba4	0.08187035
82	0x3bbaf5ef	0.005705587
83	0xbda05123	-0.078279756
84	0x3f183013	0.59448355
85	0x3db5115b	0.08841201
86	0xbc01eb2b	-0.007929604
87	0xbd5d238c	-0.05398898
88	0x3d043ef7	0.03228661
89	0x3d4feda6	0.05076375
90	0xbd78c93a	-0.06073878
91	0x3ccb1472	0.024790023
92	0x3d6ea9c8	0.058267385
93	0x3e552b1f	0.2081723
94	0xbe1f2cb1	-0.15544392
95	0x3e946509	0.28983334
96	0x3d7efcbb	0.06225274
97	0xbdaa6a96	-0.08321111
98	0xbd16d874	-0.03682752
99	0x3c197211	0.009365574
100	0xbbc9d0ef	-0.00615894
101	0x3dc1629e	0.09442638
102	0x3c8c9358	0.017160103
103	0xbd8a295d	-0.06746171
104	0x3d172d5e	0.0369085
105	0x3df23893	0.11827197
106	0xbc8dd8e8	-0.017315343
107	0x3e166984	0.14688689
108	0x3ba399ce	0.0049927
109	0x3d657410	0.05601889
110	0xbd8e9e2e	-0.06963764
111	0x3d8cbed5	0.06872336
112	0xbd0f723d	-0.035021055
113	0x3d2c35d5	0.042043526
114	0x3db40b6c	0.08791241
115	0xbd52432a	-0.051333584
116	0xbbc66f15	-0.0060557225
117	0x3e8598dd	0.26093188
118	0x3f18604d	0.59521943
119	0x3e18fc8c	0.14940089
120	0xbdb4db57	-0.08830898
121	0x3c969c5f	0.01838511
122	0xbdbdcce6	-0.09267597
123	0xbe2f6490	-0.17128205
124	0x3c881518	0.01661162
125	0x3e31d172	0.17365053
126	0xbda95d1a	-0.08269711
127	0x3e5d920e	0.21637747
