preTrained/LunarLander_ONE.pth (torch_old, 8172 bytes, 5 tensors)

affine.weight f4 [128, 8]
00000000: 1516 65be 7e6f cbbf 1b43 06be 2329 9bbd
00000010: 2162 3dbf 15db 8b3e 9425 cdbd fe3c ac3e
00000020: 4d76 053e f7ec 8abe 9ee2 81bc ac68 9bbd
00000030: 9cb3 48be 33b5 693e 8d30 57be 0d20 5c3d
00000040: 11ed debe 8609 70be 68e2 91be 3745 8dbc
00000050: 18f3 903e 7c92 75be 47f8 b93e 47b7 843e
00000060: 0031 d0be 7d5d ccbe 2623 8abd a78c 333f
00000070: 4342 853e ee42 693e 2981 61bf 07b7 063e
00000080: 2b58 94bd 9a21 c7bf 8135 4dbf e3b6 34bf
00000090: 4b84 4c3f 9799 1a3f ad0a 80be 04e4 11bf
000000a0: 6cc5 60bd 0de3 0bbe 796f 05be 7657 a5bd
000000b0: cd34 7fbe 3b87 243e 8fe1 1cbe 672f 84be
000000c0: 1516 9cbe daf1 c1be c7d8 b5be a4bd 95be
000000d0: 44a1 a6be 99cb 883e 03ed 4f3e affd 0bbc
000000e0: 1497 10be 0fb5 a7be 64e9 4fbe 9e95 0f3e
000000f0: 88bf 163e 9e90 d43d d748 96be 7867 4fbe
00000100: 7bb9 93be a4c0 82bf e701 06bf b95b 17bf
00000110: 2cb3 1abd 9128 b1bf 3ca3 c6bc d747 f03c
00000120: bb1b af3d 7281 44bf 32ea 943b b567 1f3f
00000130: 8ab4 1c3e c1c8 b13e 7a95 f1be 0953 6cbf
00000140: 447c b03c 4abd 97be 6cc8 34be dc2e c33e
00000150: c17f ffbc f07a fc3d fe15 abbe 34d1 fc3d
00000160: 55be 973e 30af f4be 80fa 623a 9f6c 183e
00000170: 2574 313d f661 60be 2e84 073d 0adc 30bf
00000180: 0899 0240 52c2 2f3f dfff 333f 1652 0a3f
00000190: 7cc0 75bf 0710 9cbf 01e9 2dbf bfaf 75bf
000001a0: 5d55 a4be 3af3 63bf e0cc b2bf 01fe 0340
000001b0: 88b6 f1be 2b7b 383f 46d5 b23e 4d37 e53f
000001c0: b7ba 693c f22f 97bc c9b0 e5bd 1314 06bf
000001d0: 8299 a2bf cd73 debe f82a cabe 623e e6be
000001e0: f41b 3c3f ebc6 05c0 19bd 92bd f271 f1bd
000001f0: f444 d4bf 5493 243f e1e9 3a3e 52c5 fbbe
00000200: 9ca9 e0bd f845 70bd 440a d7bd f98a cf3e
00000210: fa16 52bd e20c 6abd 2d2c 58bd 5fee 7c3e
00000220: 190a cc3d 9dd4 1dbe df2e 3a3d 36b4 a23e
00000230: 709b cf3d fc20 43bc f136 28bc b6b8 acbe
00000240: 1d1c 163e 2507 e4be ce09 6e3e 8006 94bc
00000250: 7f05 16be 7f89 acbd aedc 9bbe 3f0f 2dbf
00000260: 1853 5bbf da93 2bc0 0376 9f3e 6168 693f
00000270: 552c 0cc0 c2b1 983f eb22 bfbd 0ad0 a9be
00000280: 9ffd a3be 89b0 39bf 6b3b 843f 02c9 a53e
00000290: 508c f6bf 4aa9 31be 9658 06bf 962b 09bf
000002a0: 37fd 043c e2eb 04bf 442e 80be 6baf 503f
000002b0: 1a36 90be 6192 6e3e 6b10 4ebe 896b adbe
000002c0: 96e3 15be 165d 6bbf dfeb 8f3c d857 d1bd
000002d0: 7ac1 5e3e e89c 17bd faf6 35be efca c03c
000002e0: 8631 47be df7f 22bf feb0 883d 133a 0bbf
000002f0: b7ab 06bf 4db6 c4bd 47aa 1ebc b2a6 1dbf
00000300: fcc2 2f3d c57e 11be 6e8d f8be c52d 3dbe
00000310: b295 933e 1574 acbe aa63 35bf 434e e5bc
00000320: c5ea 32be f578 4d3e bfb1 05be 2f3a 883f
00000330: a7a8 dc3e 6b37 1140 a4dd 0dbf 4f1a 44bd
00000340: 37ca 0b3e 44dc 91be 4909 28bd 22f9 98bb
00000350: 7a07 683d d01a 503c 2165 f4be ec1f 20be
00000360: dee9 973d 69ce 36bf be33 093e c41e 12be
00000370: 98e1 a2be 1adc 3abd eed0 1cbf 249e 22bf
00000380: 7fe4 b23e 3bb8 3ebf ff79 acbe 8ffb f1bd
00000390: 844a debe 0855 6a3c 3e55 f5bd 6ea1 55be
000003a0: 107f 443e d7c5 4cbf 3855 f6bc 94b8 13be
000003b0: 699f 143e 66b9 65be 6211 87be 442f bebe
000003c0: d081 2f3e f856 91be 8567 1a3f aad9 0b3f
000003d0: a4ae 07be eb89 99be 4883 a53e 1500 78bf
000003e0: 3624 07be 4eb7 78bf 3b86 343f ba2f 0a3f
000003f0: 66b7 dcbd d8fd 213f f3ad 63bf 5b72 b43e
-0.22371705 -1.58934 -0.13111536 -0.075762056 -0.7397786 0.27315584 -0.10016933 0.33640283
0.1303341 -0.27133915 -0.01585513 -0.07588324 -0.19599766 0.22823028 -0.21014614 0.053741504
-0.43540242 -0.23441133 -0.28493047 -0.017244918 0.28310466 -0.2398166 0.36322233 0.2592108
-0.40662384 -0.39915076 -0.06744985 0.70136493 0.26027116 0.22779438 -0.8808771 0.13155757
-0.07243379 -1.5557129 -0.80159765 -0.70591563 0.79889363 0.6039061 -0.25008145 -0.5698855
-0.054875776 -0.13660832 -0.13030805 -0.080733225 -0.24922486 0.16067211 -0.15320419 -0.25817415
-0.30485597 -0.3787983 -0.3551695 -0.29246247 -0.3254491 0.26717833 0.20305257 -0.00854437
-0.14120132 -0.32755324 -0.20303875 0.14021918 0.14721501 0.10379146 -0.29352447 -0.20254314
-0.28852448 -1.0215039 -0.5234665 -0.5912433 -0.037768528 -1.3840505 -0.024247758 0.02933113
0.08550211 -0.7676002 0.00454452 0.6226762 0.15303245 0.34723476 -0.47184354 -0.923142
0.02154363 -0.29636604 -0.1765458 0.38121688 -0.031188847 0.12328136 -0.33415216 0.1234459
0.296374 -0.47789907 0.0008658543 0.14885186 0.043323655 -0.21912369 0.03308504 -0.6908575
2.0405903 0.68655884 0.70312303 0.54031503 -0.9599683 -1.2192391 -0.6793366 -0.9597129
-0.32096377 -0.8904301 -1.3968773 2.0623782 -0.47209573 0.7206294 0.3492834 1.7907501
0.014265708 -0.01845548 -0.1121536 -0.5237438 -1.2703097 -0.43447724 -0.39485908 -0.4496947
0.73480153 -2.090266 -0.07164974 -0.117893115 -1.6583543 0.64287305 0.1825328 -0.4917398
-0.109698504 -0.058660477 -0.10500005 0.40535715 -0.051291443 -0.057141192 -0.052776504 0.24700306
0.099628635 -0.15413137 0.045454856 0.31778115 0.10137069 -0.01190972 -0.010267005 -0.33734673
0.14659162 -0.445367 0.23245928 -0.018069506 -0.14650534 -0.08424663 -0.30441803 -0.6760139
-0.85673666 -2.6808991 0.31144723 0.91174895 -2.1902058 1.1929247 -0.09332832 -0.33166534
-0.32029435 -0.72534996 1.0330633 0.3237992 -1.926157 -0.17349735 -0.5247892 -0.5358213
0.008117012 -0.5192243 -0.25035298 0.81517667 -0.28166276 0.23298027 -0.2012345 -0.33871105
-0.14637598 -0.9193891 0.017568527 -0.10221833 0.21753493 -0.03701487 -0.17769995 0.023534266
-0.19452485 -0.63476366 0.066743836 -0.5438549 -0.52605766 -0.096050836 -0.009684152 -0.6158248
0.04291056 -0.14208515 -0.48545402 -0.18474491 0.28825146 -0.33682314 -0.708552 -0.02799142
-0.1747237 0.20065673 -0.13056086 1.0642756 0.43097422 2.2690074 -0.5541632 -0.047876652
0.13651358 -0.28488362 -0.04102448 -0.004668371 0.056647755 0.012701705 -0.47733405 -0.15637177
0.074176535 -0.71408707 0.13398644 -0.14269549 -0.3181274 -0.04562006 -0.612563 -0.63522553
0.34939954 -0.74499863 -0.33686826 -0.11815559 -0.43416226 0.0143025 -0.11979149 -0.20862362
0.19189095 -0.7998938 -0.030069932 -0.1442588 0.14513935 -0.22434005 -0.2638045 -0.37145436
0.17139363 -0.28386664 0.6031421 0.54629004 -0.13250214 -0.29988036 0.32326722 -0.96875125
-0.13197407 -0.971547 0.7051732 0.53979075 -0.10777168 0.6327796 -0.889373 0.35243496

affine.bias f4 [128]
00000000: ecbc 073f 05bc d1be 475a 24bf 98b6 13bf
00000010: 98bc ea3e 38e8 04bf 25e7 56bf 1ea9 45bf
00000020: 9184 1fbf c731 44bf 2900 bdbe a03d d8be
00000030: 1489 8f3e 4acf b23d 67fa f6be 229c 0fbf
00000040: 8119 ffbe f1a3 c5be b54c 66be b8e7 18bf
00000050: 8655 b03d 1eea d2be a1bf 1bbf a695 2fbf
00000060: 162b 21bf 5acf 6cbf 9ee8 a0be 2e02 09be
00000070: e491 d3be be6c 0cbf 21b4 92bf df69 36bf
00000080: 73e2 e0be 8ddd 1dbf 2a5f 08bf ef22 07bf
00000090: 7a21 25bf cca6 8cbf 4624 13bf 2a83 12bf
000000a0: 01a6 42bf 42c9 2abf c010 adbe 74e3 21bf
000000b0: 9612 2fbf a9b7 5fbf c3a9 38bf c594 d5be
000000c0: 0480 02bf 0ef5 58bf aa54 76bf 9492 efbc
000000d0: 90c5 25bf d6c9 f6be e782 03bf da11 05bf
000000e0: fc17 fbbe 0384 d8be 4e10 11bf 3446 4abf
000000f0: d939 b5be e381 47bf ded6 33bf 7dd5 6cbf
00000100: c9db 353f 3c12 cabe 3eff 4bbf 379b c7be
00000110: f482 c2be 896a 50bf 9247 42bf d343 01bf
00000120: 3035 98bf 610f 19bf 2252 3cbf 04e0 e1bd
00000130: b529 0dbf efc9 29bf 9906 29bf f71d e2bd
00000140: 506e 0ebf 313d e3be a4ac 84be 047d bfbe
00000150: 1a41 173f e0e0 c0be 84b8 debe e2bb 13bf
00000160: edb2 dcbe 75f4 41bf aae7 c7bd b40d 3bbf
00000170: 23dd 18bf 9abf 44be 6c38 f1bd b558 fabe
00000180: ef28 11bf b1e3 3cbf 6fbe 18bf 2c06 07bf
00000190: 05e9 07bf 8923 70bf a6ab 16bf 0507 43bf
000001a0: 121d a5be cb4b d0be c521 a8bf 5b36 dbbe
000001b0: 903a 07bf efa6 0abf c936 c5be 1cba 04bf
000001c0: b029 2f3e 0a25 24bf aca5 10bf 3217 58bf
000001d0: 786c 4bbf e34f 56bf d0d6 163f ba60 21bf
000001e0: 22bc 12bf 9419 15bf 88ad 02bf 5b5e 24bf
000001f0: 3276 36bf 027c 71bf 82e4 0abf 506e 10bf
0.53022647 -0.4096376 -0.6420025 -0.5770049 0.4584701 -0.5191684 -0.8394645 -0.7721118
-0.62311655 -0.76638454 -0.36914185 -0.42234516 0.2803427 0.087309435 -0.48237917 -0.56097615
-0.49824145 -0.3860164 -0.22490199 -0.59728575 0.08610062 -0.41194242 -0.6083928 -0.6858772
-0.6295637 -0.92503893 -0.31427473 -0.13379738 -0.41322243 -0.5485343 -1.1461221 -0.71255296
-0.43922767 -0.61666185 -0.5327021 -0.5278768 -0.64504206 -1.0988402 -0.57477224 -0.5723139
-0.7603455 -0.66713345 -0.33801842 -0.6323769 -0.68387735 -0.8738962 -0.72134036 -0.41715065
-0.50976586 -0.84748924 -0.9622294 -0.029244699 -0.6475458 -0.48200864 -0.51371616 -0.51980364
-0.49041736 -0.42288217 -0.56665504 -0.7901337 -0.35395697 -0.77932566 -0.70249736 -0.9251326
0.7103849 -0.39467037 -0.79686344 -0.38985607 -0.37990534 -0.8141256 -0.7589046 -0.50494117
-1.1891232 -0.5978909 -0.73562825 -0.11029056 -0.55141765 -0.6632375 -0.6602569 -0.110408716
-0.55637074 -0.44382623 -0.25912964 -0.37400067 0.5908371 -0.37671566 -0.4350015 -0.5770856
-0.4310526 -0.75763637 -0.09760983 -0.73067784 -0.5971243 -0.19213715 -0.1177834 -0.48895803
-0.56703085 -0.7378493 -0.5966558 -0.5274379 -0.53089935 -0.9380422 -0.58855665 -0.76182586
-0.3224874 -0.40682825 -1.3135306 -0.42814907 -0.52823734 -0.5416097 -0.3851836 -0.5184648
0.17105746 -0.6411902 -0.56502795 -0.84410393 -0.79462385 -0.8371565 0.5892153 -0.6303822
-0.5731832 -0.58242154 -0.5104604 -0.64206475 -0.712741 -0.94329846 -0.54254925 -0.56418324

action_layer.weight f4 [4, 128]
00000000: 4953 5e3f 2642 523d 84cb c03e 6fc1 e53d
00000010: c92b 19bf 3ddf 863c 9571 82be ee1a ef3d
00000020: eb94 c63e eec1 ccbe 8982 243e 7a95 fb3d
00000030: ca33 c03e 2794 6e40 c2e9 b0be daf3 a63e
00000040: 263d 893e db92 19be 403e bcbd 6397 933e
00000050: 5fc2 58be ecdd 1e3e 430c ddbd 1a3b a6be
00000060: 133e 8c3d 7f3c 3ebf 0445 bfbd f391 d93d
00000070: 2e9a 2abe 2600 9a3c 5f5f b0be f6ef a9be
00000080: 40b8 853d e020 9b3d af9e 423f 0328 a9bd
00000090: 2c91 593e 0a68 67bf 82e9 4abe 0212 293e
000000a0: efc3 fc3d 8ed4 7bbe 1405 273e ed05 3f3e
000000b0: d9be 4ebc 881a 12bd ea20 673d 0839 52bd
000000c0: b2c3 99bd eac4 e0be c006 a53e 13fb 8ebe
000000d0: 7abd 123f c14a b1bf bca9 f2bc 28ac e2bd
000000e0: 4552 303e ba12 02bf 63c2 c63d 25a1 68bc
000000f0: 9473 0cbd e878 87be c689 9fbc 6032 9b3b
00000100: 5755 063f 65b8 2e3e 70de 13be 1a9d cb3f
00000110: 3241 f0bd e274 483d ec85 26be 514e 2fbf
00000120: 0c07 1e3e 5fa6 9bbe f997 cebe 7180 adbe
00000130: 1f50 ea3d 32f7 40be 2ccd babd 6576 723e
00000140: 6bf1 8bbd b2c6 153e ec2a 2e3d 5d22 413e
00000150: 3521 a23e ae64 b2bf 346e ad3d 7da6 613e
00000160: 4ce0 74be a692 b53d 1949 28be ac49 c0be
00000170: f00a a23d bf54 8ebf 762b 273f f481 6f3e
00000180: afde 6cbe 613a 62be e9ce dcbe 5a45 d53f
00000190: 93ab 5b3e 381a 77be aab2 1d3e 76d6 453e
000001a0: 2726 ae3f 277d 39be 437e 9e3f b65d 873e
000001b0: bb46 22bf 4be2 2e3d 32e5 993c 7a76 b63e
000001c0: 6be3 4bbf 9e7b f13d 408c e73c d513 05be
000001d0: 86c1 d2bf 6492 93be 7fde 2fbf 40e7 4cbd
000001e0: ee67 903d 9dfd a73d 6f79 42be b267 28be
000001f0: e118 12bf 1483 48bf 7560 3b3e 598f 303d
00000200: 7966 0d3f 4f0e 47bb eb9c a4be 6c72 d0bd
00000210: f2d9 d0bf aee8 f4bc bc05 dabe 4bed 20be
00000220: 5bb5 89bf 4e39 c0bd 5d63 55bd dc92 1a3e
00000230: 8abb a53f 81f9 1cc0 aecd e4ba afc9 6ebf
00000240: bd2b 42be 8caa 4bbe e590 bb3e 2609 a33e
00000250: 79b0 bd3f 02c2 22bf fe0d 46be e791 21be
00000260: b7a4 cbbe 8d0b 84bf 57c6 c6bc 761b 0c3f
00000270: 74ab cabc aeca 443d ceb3 22bd c4b3 673f
00000280: 66c5 6d3d a8b8 f33c 7666 523f 868b 1bbd
00000290: cdb5 143e d1f7 4bbe 107d fdbe 930c 06bf
000002a0: de83 53be 4cbb 543e baa4 66bf 1be7 543d
000002b0: 20ca e5be 447f 61bf 8c28 b4bf aed5 873c
000002c0: 03a4 2ebd 8e06 1b3d 2513 c73c 4ba3 4cc0
000002d0: b1be 513f c06b b539 bcba c4be 63c5 2f3d
000002e0: be4f 9fbd 58b1 03c0 b456 59bd 4bf6 50be
000002f0: c333 55bf 8d7f 1cbd 996a bc3e 5ac8 cfbd
00000300: 4587 963e 9972 63bf 8dc7 98bf e9e5 e6be
00000310: 139a 773d 28a1 5dbe d467 08be 9d9b d0bf
00000320: f13f 743e 580b 0040 6f26 1abf eeaf dfbe
00000330: f8bb a2bf 4717 443e c220 d8be f22c 1bbf
00000340: 1f61 40be f4a4 0dbe f013 98bc 69ac b73d
00000350: 4f61 a8bf 4252 40be e09b dd3c 7841 08bd
00000360: d56d 293e fa32 06bf aed0 503f 6aec 89be
00000370: cf02 e0bd ad34 0bc0 7cd6 08c0 4be5 fbbe
00000380: 6072 693d 7485 f23e cf86 1dbf 8079 8c3f
00000390: 8d3e cc3c cf37 b2be b0cc 38be 0d6e 79be
000003a0: 1c31 ebbf 7cf9 df3c f354 a83e 41a1 15be
000003b0: ccd4 74bf 87a8 2cbc 3d16 2ebe f0b8 01be
000003c0: 11d0 bdbe eee0 16bd 6b1b d8bd 9ae1 5f3e
000003d0: ebf0 373f cb7f 983d 4bfd edbe c44d 30be
000003e0: b48c d83c e300 b7bc f66f 7139 32c0 37be
000003f0: 14fe bebe 665e 00bf b502 14bc 59ad 84be
0.86845833 0.051332615 0.3765527 0.11218535 -0.59832436 0.01646387 -0.2547728 0.11675058
0.3878549 -0.39991707 0.1606542 0.1228437 0.37539512 3.7277925 -0.34553343 0.3260792
0.26804465 -0.14997427 -0.09191561 0.28826436 -0.21167897 0.15514344 -0.10793354 -0.32466966
0.06847777 -0.7431106 -0.093393356 0.10623541 -0.16660377 0.018798899 -0.34447762 -0.33190888
0.065292835 0.0757463 0.7602338 -0.08259585 0.21246785 -0.90393126 -0.19815639 0.16510776
0.12342059 -0.24592802 0.16310531 0.18654604 -0.012618744 -0.035669833 0.056427874 -0.05132392
-0.07508029 -0.43900234 0.32231712 -0.2792593 0.5732037 -1.3850938 -0.029621951 -0.110679924
0.17218883 -0.50809824 0.09705045 -0.014198576 -0.03428991 -0.26459432 -0.019474875 0.00473623
0.5247397 0.17062528 -0.14440322 1.5907319 -0.11731185 0.048939593 -0.16262025 -0.68478876
0.15432376 -0.3040037 -0.4035032 -0.33887056 0.11441063 -0.18844298 -0.09121165 0.23677976
-0.06833156 0.14626577 0.042521402 0.18860765 0.3166596 -1.3936975 0.08468285 0.22036166
-0.23913687 0.088658616 -0.16434135 -0.37556207 0.079122424 -1.1119612 0.6530069 0.23389417
-0.23131822 -0.22092582 -0.4312661 1.666179 0.21452169 -0.24131095 0.15400186 0.19320092
1.3605393 -0.18114148 1.2382282 0.26438683 -0.63389176 0.04269628 0.018786047 0.35637265
-0.7964389 0.11791156 0.028265119 -0.12995847 -1.6465309 -0.28822625 -0.6869888 -0.050025225
0.07051073 0.0820267 -0.18991636 -0.16445807 -0.5706921 -0.7832501 0.18298514 0.043105457
0.55234486 -0.0030373519 -0.3215097 -0.10178074 -1.6316512 -0.029896107 -0.425825 -0.1571552
-1.075847 -0.0938593 -0.052096713 0.15095085 1.2947857 -2.4527285 -0.0017456317 -0.93276495
-0.18961997 -0.19889277 0.36633983 0.31842917 1.481948 -0.6357728 -0.19341275 -0.15778314
-0.39774105 -1.0316025 -0.024264498 0.547294 -0.024739958 0.048044853 -0.039722256 0.90508676
0.058049582 0.029751137 0.82187593 -0.037974857 0.14522476 -0.19918753 -0.49509478 -0.52362937
-0.20655772 0.20774573 -0.900951 0.05197821 -0.44880772 -0.88084817 -1.4074874 0.016581383
-0.042636883 0.037848048 0.024301121 -3.1974666 0.81931597 0.0003460329 -0.38423717 0.042912852
-0.077788815 -2.0576992 -0.053061202 -0.20406453 -0.8328211 -0.03820758 0.36800078 -0.10145636
0.29400077 -0.8884674 -1.1935898 -0.45097283 0.06044967 -0.21643507 -0.13320857 -1.629749
0.23852517 2.0006924 -0.60214895 -0.4368891 -1.2713614 0.19149505 -0.42212492 -0.60615456
-0.18787049 -0.13832456 -0.018564194 0.089684315 -1.3154696 -0.18781379 0.027051866 -0.03326556
0.16545804 -0.52421534 0.8156842 -0.26938182 -0.10938036 -2.17509 -2.138091 -0.49198374
0.056993842 0.47367442 -0.61533827 1.0974579 0.02493217 -0.34808204 -0.18046832 -0.24358387
-1.8374362 0.027340643 0.3287731 -0.14612295 -0.956372 -0.010538227 -0.1700067 -0.12668204
-0.37072805 -0.036835603 -0.105521046 0.21863404 0.71851987 0.074462496 -0.4648231 -0.17217165
0.02643428 -0.02233929 0.0002302526 -0.1794441 -0.3730322 -0.5014404 -0.0090338485 -0.25913504

action_layer.bias f4 [4]
00000000: 6c8a 083f b7c4 303f ddb7 233e 85b1 49bf
0.53336215 0.69050163 0.15988107 -0.787865

value_layer.weight f4 [1, 128]
00000000: 7efe a23e d443 093d b6b6 24be 9f8a ad3d
00000010: 4589 db3e 073c 04be 182e cebe 5d0a 143e
00000020: 9728 e3be cda1 c3bb 04fe 2fbc ab31 55bc
00000030: 4786 e2be 46d1 123f 4431 aa3d b800 adbd
00000040: 7a44 633d 2795 a73c cba7 6939 8605 c23d
00000050: fe05 683d 7e63 d2bc 1804 4f3e becf fe3b
00000060: a009 c5bd 8eb1 693e a35d 7d3a b448 d8bb
00000070: 1231 a7bd 85b1 e23d 8696 a93e 70e8 95bd
00000080: ef63 313d 1747 453d 6fcb 5dbe c0fb b53d
00000090: 648b b03c 5ff6 553e 1cf9 1c3e 064b d3bd
000000a0: 43b0 8f3d 3c8b 733b cb85 0fbe bc30 203e
000000b0: 2934 1f3e bf9e 003d 5f50 7d3e 808b a83d
000000c0: 84b3 64bd acfe 16bd 00fb 26be 3434 90be
000000d0: 060e a63e 38b8 6a3b 507d 443e 7674 18bd
000000e0: 6a68 083d 9557 c0bd 3978 243c 2274 2ebd
000000f0: a27c 193e 57ba 773e b28a 88bd faa8 233f
00000100: e3d1 af3f 6b23 a7be f612 453e 1193 83ba
00000110: 08cf e6bd f36c 223e 31cf cf3d 677c 0d3e
00000120: a565 ad3e ae95 b23d 9009 cebd cd89 62bd
00000130: cff3 b7bc 6fb7 973d 418d 1a3e 0dd0 b63e
00000140: 3b56 8fbd 91ab a73d b287 ba3b 76c5 9fbd
00000150: 613e 4c3f 9fe8 523e 91f5 01bc 8723 5dbd
00000160: c8ef 9abc e699 813e ef4c 903c 47b5 13be
00000170: 6ab7 823c 7012 f4be 5689 683e 0128 c4bd
00000180: c7fc 7e3d b0fc e6bb 053f 23be 0dd7 e5be
00000190: 2282 543e ccf3 633e aee1 03bd a328 383e
000001a0: e0d7 90be 935d 023e f8b1 e3be 8369 163e
000001b0: ca4a 283f c173 653d 92af 103d 29bf 8c3d
000001c0: 875f 553f f387 033d fdc5 ba3d d01c 28bd
000001d0: 7340 943e c07c 743e 14f4 f2be 9772 473e
000001e0: 49f7 8bbd 6165 163d 0e26 063e f7ec 083e
000001f0: 1610 c4be 87d7 96bd 48bc b4bd 2a57 893e
0.31834787 0.03351195 -0.16085324 0.084737055 0.42878166 -0.12913524 -0.40269542 0.14457078
-0.44366905 -0.005970216 -0.010741714 -0.01301233 -0.4424307 0.57350576 0.08310178 -0.08447403
0.055485226 0.020456864 0.0002228312 0.0947371 0.05664634 -0.025682207 0.20216405 0.0077762296
-0.096209764 0.22821638 0.0009665137 -0.0066004638 -0.08163656 0.110690154 0.33122653 -0.073197246
0.043308195 0.0481635 -0.21659635 0.08885908 0.021550842 0.20894764 0.15329403 -0.10317044
0.07016041 0.0037161848 -0.14015882 0.1564359 0.15547241 0.031401392 0.2473769 0.082297325
-0.055835262 -0.036863968 -0.16306686 -0.28164828 0.32432574 0.003581537 0.19188428 -0.03722044
0.033302702 -0.09391705 0.010038429 -0.04259122 0.1498895 0.24192177 -0.06667079 0.6392971
1.3735927 -0.3264421 0.19245514 -0.0010038336 -0.11269957 0.15861873 0.101469405 0.13816987
0.3386661 0.087199554 -0.10060418 -0.0553072 -0.022455124 0.07408034 0.15092947 0.35705605
-0.06998869 0.081870206 0.0056924457 -0.078013346 0.7978268 0.2059655 -0.007932083 -0.05398896
-0.018913165 0.25312728 0.01761481 -0.1442462 0.0159566 -0.47670317 0.2270864 -0.09577943
0.062252786 -0.0070491657 -0.15942009 -0.44890633 0.20752767 0.2226097 -0.032197647 0.17984252
-0.282897 0.12731008 -0.44471717 0.14688687 0.6573912 0.056018595 0.035323687 0.068723984
0.8334889 0.032112073 0.091197945 -0.041043103 0.2895542 0.23875713 -0.47451842 0.19477306
-0.06834275 0.036717776 0.13100454 0.13371645 -0.38293523 -0.07365327 -0.08824974 0.26824313
