preTrained/LunarLander_THREE.pth (torch_old, 8176 bytes, 5 tensors)

affine.weight f4 [128, 8]
0	0x3ea4fda2	0.32224756
1	0xbf96f886	-1.1794593
2	0xbdbf9513	-0.093546055
3	0x3dbb3b7b	0.091422044
4	0xbe9cf875	-0.30658308
5	0xbe874dac	-0.26426446
6	0x3e01a0e7	0.12659036
7	0xbe0c7563	-0.13716654
8	0x3e0536a2	0.13009122
9	0xbe8ad3af	-0.27114627
10	0xbd28e5ce	-0.041234784
11	0xbd9500d8	-0.072755516
12	0xbe466da2	-0.19377759
13	0x3e37e2e8	0.17957652
14	0xbe57308d	-0.21014614
15	0x3c839f0a	0.016067047
16	0x3d000ccb	0.0312622
17	0xbe4012f5	-0.18757232
18	0xbdae80a5	-0.08520631
19	0xbda0f24f	-0.07858717
20	0xbe22df07	-0.1590539
21	0x3e036e8f	0.12835144
22	0xbe95704a	-0.29187232
23	0xbe59ecac	-0.2128169
24	0x3c51bc07	0.012801177
25	0xbe98ab12	-0.29818016
26	0xbd134955	-0.035958607
27	0x3e9256fe	0.28581995
28	0xbdac7adc	-0.08421871
29	0x3dcd5638	0.100262105
30	0xbe848674	-0.2588383
31	0x3dfb1b82	0.12261106
32	0xbc1cf875	-0.009580721
33	0xbf2b0676	-0.66806734
34	0xbd0bbfe7	-0.03411856
35	0xbea69ede	-0.3254308
36	0x3f3065d5	0.68905383
37	0x3ef00a07	0.4688265
38	0xbdbfacfb	-0.09359165
39	0xbec4a4c3	-0.38406953
40	0x3c99c34e	0.018769886
41	0xbe0ddf29	-0.1385466
42	0xbdd5a520	-0.10431886
43	0xbd7dbd75	-0.06194826
44	0xbe2f6c6c	-0.17131203
45	0x3c51d5ee	0.0128073525
46	0xbf0df50a	-0.55452025
47	0xbe842f64	-0.25817406
48	0x3e317a6b	0.17331855
49	0xbf0fb977	-0.5614237
50	0xbdb8ea0f	-0.09029018
51	0x3d12b01a	0.035812475
52	0xbe980b57	-0.29696152
53	0xbd980eb3	-0.07424679
54	0xbecd1d3d	-0.4006137
55	0x3d323306	0.04350569
56	0xbbce6eea	-0.006299843
57	0xbe44726a	-0.1918427
58	0xbe87e2fa	-0.26540357
59	0x3d5da611	0.05411345
60	0x3c0c5c15	0.008566876
61	0xbd5d10a4	-0.053970948
62	0xbeb3cd7f	-0.3511772
63	0xbe9d5f47	-0.30736753
64	0x3e01b5cd	0.12667008
65	0xbf897129	-1.0737659
66	0xbedf487e	-0.43609995
67	0xbfd0ee1a	-1.6322663
68	0x3e4d2995	0.20035394
69	0xbfbdfd89	-1.4842998
70	0x3ebf22af	0.3733115
71	0xbeb76236	-0.35817116
72	0x3e821bed	0.2541193
73	0xbf256543	-0.6460764
74	0x3ccb9d27	0.02485521
75	0x3e855401	0.26040652
76	0x3d3f0671	0.046637002
77	0x3e71ab97	0.23600613
78	0xbe744bfa	-0.23857108
79	0xbef6fb48	-0.48238587
80	0x3e37aded	0.17937441
81	0xbe74997f	-0.23886679
82	0xbe3e4734	-0.1858185
83	0x3ee474cd	0.44620362
84	0xbe976251	-0.29567197
85	0x3e4c0c6f	0.19926618
86	0xbf0fe25b	-0.56204766
87	0x3b6dff43	0.0036315478
88	0x3e1b0446	0.15138349
89	0xbed0a44b	-0.40750346
90	0x3e8128f0	0.25226545
91	0xbe2ea21a	-0.17054024
92	0x3d04f3dd	0.03245913
93	0x3be69556	0.007036845
94	0xbe9d56dc	-0.3073033
95	0xbed58c89	-0.41708782
96	0x3f2e5d60	0.6811123
97	0x3e6f18ef	0.23349355
98	0xbf2f4b74	-0.6847451
99	0xbf223fdd	-0.633787
100	0xc038824a	-2.8829522
101	0x3ec4451b	0.38333973
102	0xbec97ba4	-0.39352143
103	0xbf3dbfe1	-0.7412091
104	0x3f99ba60	1.2010002
105	0x3f9f4fb5	1.24462
106	0x3fbba741	1.4660417
107	0x3faf5d65	1.3700377
108	0xc00e27c8	-2.221178
109	0xbf063f19	-0.5244003
110	0xbe1277ab	-0.14303462
111	0xbdfa0d43	-0.12209561
112	0x3f7a4e87	0.97776073
113	0xbf39712c	-0.7243831
114	0xbf50c451	-0.81549555
115	0x3e669897	0.22519146
116	0xbef4b7ab	-0.47796378
117	0x3f3b50c3	0.7317011
118	0xbfd728f3	-1.6809372
119	0x3f990645	1.1955038
120	0x3fbc082e	1.4689996
121	0xbfc6575e	-1.5495412
122	0x3fbc7444	1.4722981
123	0xbfcf0b04	-1.6175237
124	0x3cd8477b	0.026401272
125	0x3f1e3de2	0.61813176
126	0xbe6577eb	-0.22409026
127	0xbdd7eaf1	-0.105428584
128	0xbcc6fac4	-0.024289496
129	0xbe849f25	-0.25902668
130	0x3e0eca9f	0.13944481
131	0x3e8853b6	0.26626366
132	0xbe0f6167	-0.14002
133	0xbc5ed5cd	-0.013600779
134	0x3d1d34d2	0.03838045
135	0x3eaeb1cc	0.34120023
136	0x3e81aac7	0.25325605
137	0xbe1f9b2c	-0.15586537
138	0x3c9c2953	0.019062674
139	0x3ea7dc7b	0.327854
140	0x3e015622	0.12630513
141	0x3d348fb1	0.044082347
142	0x3e015fbb	0.12634175
143	0xbeacc12a	-0.33741122
144	0x3f8c9ea8	1.0985918
145	0xbf30435f	-0.688528
146	0x3ed71088	0.420048
147	0x3e135071	0.14386155
148	0x3e5db4c7	0.21650992
149	0x3d86653a	0.06562276
150	0x3ea6e29d	0.32594767
151	0xbe065248	-0.13117325
152	0x3d53d91a	0.051720716
153	0xbeeebfae	-0.46630615
154	0xbd51af2d	-0.05119245
155	0x3e2008e0	0.15628386
156	0xbe719a2d	-0.2359397
157	0x3e34aeb2	0.17644766
158	0xbf0d2b84	-0.55144525
159	0xbf037dd0	-0.5136385
160	0x3fddd368	1.7330141
161	0xbed33c7e	-0.4125709
162	0x3f34b65f	0.70590776
163	0xbf0c409a	-0.54786074
164	0xbf343f49	-0.70409065
165	0xbef5f608	-0.4803927
166	0xbde3b5b4	-0.111186415
167	0xbec5f344	-0.3866216
168	0x3e3ec8e8	0.18631327
169	0xbf2b10a1	-0.6682225
170	0xbe148029	-0.14502014
171	0x3f1a364f	0.6023912
172	0xbe7e71f2	-0.24848154
173	0x3e2d22e8	0.16907847
174	0xbe4e106b	-0.2012345
175	0xbeadd6f7	-0.33953068
176	0x3ca760be	0.020431872
177	0xbf4c8bda	-0.79900897
178	0xbe2eadea	-0.1705853
179	0xbea25585	-0.3170587
180	0x3bc6cc73	0.0060668527
181	0xbe5c27d1	-0.21499564
182	0xbeb5df22	-0.355218
183	0xbea3e384	-0.32009518
184	0x3cf6958a	0.030100603
185	0xbf6c2049	-0.92236763
186	0xbd41cac8	-0.047312528
187	0xbed25463	-0.41080007
188	0xbec00738	-0.37505507
189	0xbdf86974	-0.121294886
190	0x3ee4db29	0.44698456
191	0xbe9f47de	-0.31109518
192	0x3f0e92b0	0.5569258
193	0x3f13e233	0.5776703
194	0x3ef1808c	0.47168386
195	0xbfcf5414	-1.6197534
196	0x404213d8	3.0324612
197	0xbf37a1ca	-0.71731246
198	0x3e7c6423	0.24647574
199	0xbf5250b2	-0.8215438
200	0xbf1d4128	-0.61427546
201	0xbd73fd06	-0.059567474
202	0xbd85f67a	-0.06541152
203	0x3f7dc497	0.991281
204	0x3f3b0861	0.7305966
205	0x3f9bf269	1.2183353
206	0xbe2144da	-0.15748921
207	0xbe5da2ca	-0.2164413
208	0x3e0bc8e8	0.13650858
209	0xbe91dc4d	-0.2848839
210	0xbd2806f0	-0.04102224
211	0xbb98bcb7	-0.0046611684
212	0x3d67f82d	0.056633163
213	0x3c4f8b94	0.012667555
214	0xbef46521	-0.47733405
215	0xbe201fec	-0.15637177
216	0xbea62b9b	-0.32455143
217	0xbf948f3d	-1.1606213
218	0x3ea94703	0.3306199
219	0x3e826d1d	0.25473872
220	0xbfadf635	-1.3590761
221	0xbe41dcd5	-0.18931897
222	0xbe1a4cf3	-0.15068416
223	0xbfd5810d	-1.6680008
224	0x4022b2eb	2.5421703
225	0xbf48094c	-0.78139186
226	0x3f9376a4	1.1520581
227	0xbf0e1f82	-0.5551683
228	0xbfa01be7	-1.2508515
229	0xbeb17272	-0.34657627
230	0x3c5dba72	0.013533222
231	0x3d8adaf3	0.067800425
232	0x3e99d304	0.30043805
233	0xbf4d7d68	-0.8026948
234	0xbd75998c	-0.059960887
235	0xbe72a2b8	-0.23694885
236	0x3d823d00	0.06359291
237	0xbdd628fa	-0.104570344
238	0xbe871162	-0.2638045
239	0xbebe2f2b	-0.3714536
240	0x3eb0bc98	0.34518886
241	0xbe509e96	-0.20372996
242	0x3f017e6b	0.50583524
243	0x3ed6523a	0.4185961
244	0xbe1fca71	-0.15604569
245	0xbe6be4bd	-0.23036475
246	0xbec3c17e	-0.3823356
247	0xbe9919db	-0.2990254
248	0xbe731189	-0.23737158
249	0xbf2c61ae	-0.6733655
250	0xbe2226b6	-0.1583508
251	0x3ef7d0d4	0.4840151
252	0x3dbd3929	0.09239418
253	0x3da6e85a	0.08149786
254	0xbe5ecd37	-0.21757971
255	0x3e41c3c4	0.18922335

affine.bias f4 [128]
0	0x3e95ba56	0.29243726
1	0xbed78b89	-0.42098644
2	0xbe64c1f8	-0.22339618
3	0xbeb77828	-0.3583386
4	0xbe519ac7	-0.20469199
5	0xbf0d8a31	-0.5528899
6	0xbf23d46b	-0.63996
7	0xbf399c36	-0.72503984
8	0x3cc107ee	0.023563351
9	0xbf179291	-0.5920802
10	0xbf1104b0	-0.5664778
11	0xbf496694	-0.78672147
12	0xbee310a3	-0.4434863
13	0x3eb4f94f	0.35346457
14	0xbebe30c7	-0.3714659
15	0xbf3d24c7	-0.7388424
16	0xbf1df32d	-0.6169918
17	0xbefd35a4	-0.49454987
18	0xbf8d6f5f	-1.1049613
19	0xbe8493df	-0.25894067
20	0xbee5cf97	-0.4488494
21	0xbf050015	-0.5195325
22	0xbf359a34	-0.7093842
23	0xbf61eed6	-0.8825506
24	0xbf756f3f	-0.95872873
25	0xbf49abdd	-0.7877787
26	0xbea0e928	-0.31427884
27	0xbf31e7dd	-0.6949442
28	0xbe96f433	-0.29483184
29	0xbf1b489e	-0.6065768
30	0xbf4dc42a	-0.8037745
31	0xbf289873	-0.6585762
32	0xbee7076c	-0.4512285
33	0xbf08d729	-0.5345331
34	0xbe59f64c	-0.21285361
35	0xbf169e07	-0.5883488
36	0xbf715d9e	-0.94283473
37	0xbebafdb4	-0.36521685
38	0xbebce26b	-0.36891493
39	0xbc14f89d	-0.009092477
40	0xbf7403ae	-0.95318115
41	0xbee9bb72	-0.45650822
42	0xbeac5e7a	-0.3366583
43	0xbf03a2d5	-0.51420337
44	0xbedbd361	-0.42934707
45	0xbefe9444	-0.49722493
46	0xbecd1f83	-0.40063104
47	0xbed42242	-0.41432387
48	0xbf027d61	-0.50972563
49	0xbf0a70de	-0.5407847
50	0xbf272073	-0.6528389
51	0xbebe85a0	-0.37211323
52	0xbf58e16d	-0.8471897
53	0xbef92333	-0.48659667
54	0xbecc0666	-0.39848632
55	0xbf2b6525	-0.6695121
56	0xbf181c6c	-0.5941837
57	0x3f2fb796	0.68639505
58	0xbf11104e	-0.56665504
59	0xbf42d595	-0.7610715
60	0xbf4ff94c	-0.8123977
61	0xbf07fb3f	-0.53117746
62	0xbf135e8c	-0.5756614
63	0xbf72b8fa	-0.948135
64	0xbf0a3676	-0.5398935
65	0xbf7314aa	-0.94953406
66	0xbf33431f	-0.70024294
67	0xbf488c70	-0.7833929
68	0xbfb688ab	-1.4260458
69	0xbf5b02f2	-0.8555137
70	0xbf644bcb	-0.8917815
71	0xbf6a74b4	-0.91584325
72	0xbf37ccc7	-0.7179684
73	0xbeafce2f	-0.34336993
74	0xbeeda8f6	-0.4641797
75	0x3ecebc8d	0.40378228
76	0xbf2de686	-0.67929876
77	0xbd2404c5	-0.04004361
78	0xbf17768b	-0.5916526
79	0xbef9d838	-0.48797774
80	0xbf9bfcb4	-1.2186494
81	0xbee9e271	-0.45680574
82	0xbf72c3fd	-0.94830304
83	0xbebf3ccb	-0.3735107
84	0x3e5df865	0.21676786
85	0xbf4716ce	-0.7776917
86	0xbfd8887b	-1.691665
87	0xbf13bbe1	-0.57708555
88	0xbedad3bc	-0.42739666
89	0xbf45d1b7	-0.77273124
90	0xbf2c296b	-0.672507
91	0xbef80af6	-0.48445863
92	0xbf2535c5	-0.6453517
93	0xbf1747a6	-0.590937
94	0xbe9f1966	-0.31074065
95	0x3f52fb69	0.8241487
96	0xbf112916	-0.5670332
97	0xbeff6130	-0.49878836
98	0xbee19644	-0.44059956
99	0xbf5e9110	-0.869401
100	0xbebcfb67	-0.36910555
101	0x3fbe693b	1.4875864
102	0xbec9debd	-0.39427748
103	0xbf761094	-0.96119046
104	0xbf173175	-0.5905984
105	0xbf157281	-0.58377844
106	0xbf23afd3	-0.6394016
107	0xbedb36b0	-0.4281516
108	0xbe868d10	-0.26279497
109	0xbf0aa6f7	-0.5416102
110	0xbeb5b60c	-0.35490453
111	0xbec81ca4	-0.3908435
112	0xbe8ce8ea	-0.2752145
113	0xbf289172	-0.6584693
114	0xbf76687f	-0.962532
115	0xbf10ff47	-0.5663952
116	0xbef62e1b	-0.4808205
117	0xbf07d239	-0.5305515
118	0xbf4e52d7	-0.80595154
119	0xbf1fbc65	-0.6239684
120	0xbf1d341c	-0.6140764
121	0xbf15451d	-0.58308583
122	0xbed75565	-0.42057338
123	0xbf743ae5	-0.95402366
124	0xbe2d2aca	-0.16910854
125	0xbf43a5f2	-0.7642509
126	0xbf182a2c	-0.5943935
127	0xbf24253f	-0.64119333

action_layer.weight f4 [4, 128]
0	0x3f84aa7b	1.0364527
1	0x3d4b0962	0.049569495
2	0x3e2cec6f	0.16887067
3	0x3e019e47	0.12658034
4	0x3e9caa3e	0.30598634
5	0x3c7d9c14	0.015479106
6	0xbd03a2d2	-0.0321377
7	0xbe7f4266	-0.24927673
8	0xbff9ae26	-1.9506271
9	0xbf044b00	-0.5167694
10	0xbd49b556	-0.0492452
11	0x3c70a50d	0.014687789
12	0xbe2d73ca	-0.16938701
13	0xbeff5695	-0.49870744
14	0x4010f2d9	2.2648222
15	0xbf31f55d	-0.6951502
16	0x3e23f11a	0.16009942
17	0xbe50b605	-0.20381935
18	0x3e1d6a73	0.15372638
19	0xbdf9c32f	-0.121954314
20	0xbf87c1a7	-1.0605973
21	0xbe9b78be	-0.30365556
22	0xbe5f7128	-0.2182051
23	0xbf25548f	-0.6458215
24	0xbf9f0af3	-1.2425216
25	0x3e64128f	0.22272705
26	0xbdbf449d	-0.09339259
27	0x3db6337e	0.0889654
28	0x3d3ce59d	0.046117414
29	0xbe2a9f8d	-0.16662426
30	0x3e81804f	0.25293204
31	0xbedcae9e	-0.43101972
32	0xbbaec08d	-0.0053330124
33	0x3cd6870b	0.02618744
34	0xbf057f7c	-0.5214765
35	0xbf985e92	-1.190386
36	0xbfdff04d	-1.7495209
37	0xbf6e2894	-0.9303067
38	0xbde265d2	-0.11054577
39	0xbfe07aa2	-1.7537425
40	0x3d93ed6e	0.072230205
41	0xbe9531be	-0.29139513
42	0xbea02784	-0.31280148
43	0x3e39d80b	0.1814882
44	0xbe383e15	-0.17992432
45	0xbdf1c9e8	-0.11806089
46	0x3e288135	0.16455539
47	0xbd4e0d22	-0.050305493
48	0xbd99b461	-0.07505108
49	0xbecce6d4	-0.40019858
50	0x3cada87d	0.021198506
51	0xbe31b164	-0.17352825
52	0x3e652dfb	0.22380821
53	0xbf8dabc8	-1.1068048
54	0x3da0bdff	0.07848739
55	0xbdd1deae	-0.10247551
56	0x3dbaf1b8	0.091281354
57	0x3f70a300	0.9399872
58	0x3dc6c25d	0.097050406
59	0xbc64b6f1	-0.013959632
60	0xbf23f579	-0.64046437
61	0xbcf3873e	-0.029727574
62	0x3e5e7def	0.21727727
63	0xbdddb684	-0.10825828
64	0xbf819798	-1.0124388
65	0xbe5a7139	-0.21332254
66	0xbe80b78d	-0.25140038
67	0x3ecc600c	0.39917028
68	0xbeab457f	-0.3345146
69	0x3d5450ee	0.051834993
70	0xbeb7b4f6	-0.3588025
71	0x3e9fe4ba	0.31229192
72	0x3db46deb	0.08810028
73	0xbe3721a6	-0.1788393
74	0xbe17089f	-0.14749382
75	0x3fddbb9f	1.7322882
76	0x3e60e7d0	0.2196343
77	0xbf18714e	-0.5954789
78	0xbce64048	-0.028106824
79	0x3eb1ea59	0.34749106
80	0x3ee277d4	0.44232047
81	0xbc9caed2	-0.01912633
82	0x3f032e36	0.5124239
83	0x3e4121e7	0.18860589
84	0xbffd8d56	-1.9808757
85	0xbfdce781	-1.7258149
86	0x3e6d3192	0.23163441
87	0x3e61a6c9	0.2203628
88	0xbe0577af	-0.13033937
89	0xbe4a7d7d	-0.19774432
90	0xbe0b6734	-0.13613588
91	0xbd65e28a	-0.056124248
92	0x3d367619	0.04454622
93	0xbece5231	-0.40297082
94	0xbed868cc	-0.42267454
95	0x3fdae1df	1.710018
96	0xbe6cde81	-0.23131754
97	0xbe6a956f	-0.22908567
98	0xbe894506	-0.26810473
99	0xbc62ee32	-0.0138507355
100	0x3e0a2397	0.13490139
101	0x401dffba	2.4687333
102	0x3e2d8930	0.16946864
103	0xbef783b3	-0.48342666
104	0xbec2231a	-0.37917405
105	0xbe856c4c	-0.26059186
106	0x3e5272c9	0.205516
107	0x3e875dd6	0.2643878
108	0xbf351080	-0.707283
109	0x3d2ee1e7	0.042695906
110	0xbd08ceb1	-0.03340024
111	0x4009aa5e	2.1510234
112	0xbf0b913a	-0.54518473
113	0x3e1505d2	0.14553002
114	0x3d2a5f34	0.0415947
115	0x3e027eeb	0.12743728
116	0x3e8fc5c5	0.28080574
117	0xbf55ebcf	-0.8356294
118	0xbe37da00	-0.17954254
119	0x3deefe39	0.11669583
120	0x3e9f42fd	0.31105796
121	0xbd6b5ffa	-0.057464577
122	0xbb3702d5	-0.0027925272
123	0x3e466a1e	0.19376418
124	0xbe3226ee	-0.17397663
125	0xbd4cbc73	-0.049984407
126	0x3e18a349	0.14906038
127	0x3d9d91b4	0.07693806
128	0x3e1123dd	0.14173837
129	0xbb4654b5	-0.0030262892
130	0xbdbdf6fa	-0.09275623
131	0xbe86b27d	-0.2630805
132	0xbfca9879	-1.5827781
133	0xbce869cc	-0.02837076
134	0xbe566b79	-0.20939435
135	0xbe8049f4	-0.25056422
136	0xbfd2938c	-1.6451278
137	0xbdc76c41	-0.09737445
138	0xbe472259	-0.19446696
139	0xbe6677de	-0.22506663
140	0x3f4a2817	0.7896742
141	0x402a6f92	2.6630597
142	0xbf549566	-0.83040464
143	0xbf29c32a	-0.6631342
144	0xbe47accd	-0.19499512
145	0xbe3db44f	-0.18525814
146	0xbe29c198	-0.16577756
147	0xbdae94e9	-0.08524496
148	0x3f744a9f	0.9542636
149	0xbe0d07d3	-0.13772516
150	0xbe3f8f41	-0.18706991
151	0x3ca231a8	0.019799069
152	0xbffaff0d	-1.9609085
153	0xbfb735b9	-1.431327
154	0xbcc6c66a	-0.024264533
155	0x3f5f3bd6	0.8720068
156	0x3f0da5f8	0.55331373
157	0x3d42e56f	0.047582086
158	0xbd0766ff	-0.03305721
159	0xbe517e9a	-0.20458451
160	0x3d96cf61	0.07363773
161	0x3cf792d6	0.030221384
162	0x3fc060b1	1.5029508
163	0x3f129d77	0.5727152
164	0x3d2bf172	0.041978307
165	0x3f908abe	1.1292341
166	0xbef1ced9	-0.47228125
167	0xbeff5a19	-0.49873427
168	0x3e8d92e3	0.27651128
169	0x3d4d495a	0.05011878
170	0xbd995896	-0.074875996
171	0x3ccc3e67	0.0249321
172	0xbea5dc21	-0.32394508
173	0xbf259f3f	-0.64696115
174	0xbed305b6	-0.41215295
175	0x3c8817e7	0.01661296
176	0xbd2e8908	-0.042611152
177	0xbd7eb232	-0.06218166
178	0x3e26b941	0.16281606
179	0xbf966ce8	-1.1751986
180	0x3f91b2f8	1.1382742
181	0x3f24cc6a	0.6437441
182	0xbeacd65d	-0.33757296
183	0x3d3d6ce4	0.046246424
184	0xbeaec24c	-0.34132612
185	0xbff01ad5	-1.8758188
186	0xbd5956cf	-0.053061303
187	0xbe5205ef	-0.20510076
188	0xbe5f1f6a	-0.21789327
189	0x3c441cf4	0.011969794
190	0xbe9fd763	-0.31219015
191	0xbc8d72f1	-0.017266722
192	0x3eff68ad	0.4988455
193	0xbf2882f4	-0.6582482
194	0xbe765492	-0.24055699
195	0xbd03188d	-0.032005835
196	0xbf8c7863	-1.0974239
197	0x3caf0894	0.021366395
198	0xbc8cd4c4	-0.017191298
199	0xbfb3b44a	-1.4039395
200	0xbd48aab4	-0.04899092
201	0x3f9b8c58	1.2152205
202	0xbf3d7653	-0.74008673
203	0xbf824764	-1.0178037
204	0x3dafc4f7	0.0858249
205	0x3e9a618e	0.30152553
206	0xbe86723b	-0.26259026
207	0xbe69294a	-0.22769657
208	0xbe61133e	-0.21979997
209	0x3d9b6fd1	0.07589687
210	0xbf833cc2	-1.0252917
211	0x3db79467	0.089638524
212	0xbed1571c	-0.40886772
213	0x3f20c5c8	0.6280179
214	0x3eab3a91	0.3344312
215	0xbd08417b	-0.033265572
216	0x3d85c3a3	0.06531455
217	0xbeaa013f	-0.33204076
218	0x3cd8d388	0.026468053
219	0xbc8b456f	-0.017000882
220	0xbde3ac93	-0.111169
221	0xbffb1a3e	-1.9617383
222	0xbf8b63ed	-1.088987
223	0xbf31f3f0	-0.69512844
224	0x3d697261	0.056993846
225	0x3d646502	0.05576039
226	0xbe362849	-0.17788805
227	0xbe627645	-0.22115429
228	0xbcab9cdb	-0.020948818
229	0xbea8c186	-0.32960147
230	0xbe40ed2e	-0.18840477
231	0xbc8a347f	-0.016870735
232	0x3d8c9f6c	0.06866345
233	0x3d9e6b6e	0.07735334
234	0xbd9a2a60	-0.07527614
235	0xbe15a14b	-0.1461231
236	0xbf820ed2	-1.0160773
237	0xbc2ca898	-0.010538243
238	0xbe823616	-0.2543189
239	0xbf2dfdcf	-0.67965406
240	0xbce39221	-0.02777964
241	0xbd2924b2	-0.04129476
242	0xbd68bce3	-0.05682076
243	0xbd7904e5	-0.060795683
244	0xbd51339e	-0.051074617
245	0x3e993662	0.29924303
246	0x3e93dfbe	0.2888164
247	0xbe931329	-0.28725556
248	0xbda80243	-0.082035564
249	0xbcb9a33a	-0.02266084
250	0x3da0d390	0.07852852
251	0xbf22a90d	-0.635392
252	0xbe4b1303	-0.19831471
253	0xbf0cdf62	-0.55028355
254	0xbbf82a56	-0.007573406
255	0xbe79ce0d	-0.24395008

action_layer.bias f4 [4]
0	0x3e63c81c	0.22244304
1	0xbf30a7a4	-0.690058
2	0x3e77cf42	0.24200156
3	0x3f069641	0.5257302

value_layer.weight f4 [1, 128]
0	0x3dd2269e	0.10261272
1	0x3cf957bd	0.030437345
2	0x3cf8c2a3	0.030366248
3	0x3c17ff1e	0.009277133
4	0x3ddc5cd4	0.10759893
5	0xbdf6ae62	-0.1204498
6	0x3d3cc34e	0.046084695
7	0x3da5219e	0.080630526
8	0x3d580697	0.05274066
9	0xbc3a910c	-0.011387121
10	0x3cdd7e50	0.02703777
11	0x3db948fe	0.09047125
12	0x3edb5b52	0.4284311
13	0xbf29aa34	-0.66275334
14	0x3df21a4f	0.11821424
15	0xbecaf614	-0.39640868
16	0xbd337a26	-0.04381766
17	0x3bdd6e68	0.006757546
18	0x3d250cb6	0.040295325
19	0xbb3dc95f	-0.0028959138
20	0xbe7b1222	-0.24518636
21	0xbd88d0a4	-0.0668042
22	0x3e9848d6	0.2974307
23	0xbded6dad	-0.115931846
24	0x3ee49e98	0.44652247
25	0xbdc40cb9	-0.09572739
26	0x3a7d60cc	0.0009665608
27	0xbef66d6f	-0.48130366
28	0xbf23aa00	-0.63931274
29	0x3e5df4bf	0.21675394
30	0x3e176932	0.14786223
31	0x3d674dbe	0.056470625
32	0xbb07b39b	-0.0020706418
33	0xbd89dc8d	-0.0673152
34	0xbeb6fa67	-0.35737917
35	0x3ea8a2b3	0.3293663
36	0xbe87a6e2	-0.2649451
37	0x3f19708b	0.5993735
38	0x3cd8ed79	0.026480423
39	0x3eaa0071	0.33203462
40	0xbd00d5d7	-0.031453934
41	0x3d762fee	0.060104303
42	0xbaa6f4b9	-0.0012737728
43	0x3e31de1a	0.17369881
44	0x3cd42fcd	0.0259017
45	0xbd102294	-0.035189226
46	0x3b7f92c0	0.0038997382
47	0x3d892efa	0.06698413
48	0xbd619ef4	-0.05508323
49	0x3e1d6930	0.15372157
50	0xbd9fa155	-0.077944435
51	0x3d82a536	0.06379168
52	0x3db5c111	0.08874715
53	0x3eed15a2	0.46305567
54	0x3d0da107	0.034577396
55	0xbd6f699e	-0.058450334
56	0x3c17c0ae	0.009262247
57	0xbe9c8273	-0.30568275
58	0x3c2478ee	0.0100385975
59	0xbd3e4580	-0.046453
60	0x3ec6425a	0.38722497
61	0x3cb5a4db	0.022173336
62	0x3e525333	0.2053955
63	0xbe2cb703	-0.16866688
64	0x3d4481b9	0.047975276
65	0xbf031509	-0.5120397
66	0x3d2122a0	0.03933966
67	0x3e9975fd	0.2997283
68	0xbee288d5	-0.4424502
69	0x3ea0f959	0.31440237
70	0x3dde6e62	0.108608976
71	0xbe7356e5	-0.23763616
72	0x3e4109d2	0.18851402
73	0xbe8c30e6	-0.27381057
74	0x3e58bd3b	0.21165936
75	0x3e423282	0.1896458
76	0x3daa20d6	0.08307044
77	0xbe1d3086	-0.15350541
78	0xbcd557b3	-0.026042795
79	0xbc6682ba	-0.014069254
80	0x3ba7618a	0.005108063
81	0xbd2699c5	-0.04067399
82	0x3e0f41b5	0.13989909
83	0xbda0001e	-0.07812522
84	0x3ef83d5b	0.4848431
85	0xbdd49e1d	-0.1038172
86	0x3e43575f	0.19076298
87	0xbd5d2398	-0.053989023
88	0x3b765f83	0.003759355
89	0x3de1266f	0.10993659
90	0xbe9fac4d	-0.31186143
91	0x3d0cd83f	0.034385916
92	0x3de8a937	0.113604
93	0xbeb4539f	-0.35220048
94	0xbd3701e7	-0.04467955
95	0x3ef226ed	0.47295323
96	0x3d7efcc0	0.06225276
97	0xbd62c048	-0.055359155
98	0x3d1d4a80	0.038401127
99	0x3e6855d7	0.22688995
100	0x3d240eab	0.04005305
101	0x3f577110	0.84156895
102	0x3b8389e3	0.00401424
103	0x3d391140	0.045182467
104	0xbbe5149a	-0.0069909813
105	0xbe2d884a	-0.16946521
106	0xbb02b9b2	-0.0019947109
107	0x3e166982	0.14688686
108	0x3d94b008	0.07260138
109	0x3d657407	0.056018855
110	0x3bf8ff21	0.007598773
111	0xbdfea34a	-0.12433489
112	0xbd3b588f	-0.045738753
113	0xbde8322a	-0.11337693
114	0xbd662775	-0.056189973
115	0x3c9ab3a8	0.018884495
116	0xbc5e97f3	-0.013586032
117	0x3ca9e206	0.02073766
118	0xbd086cc5	-0.033306856
119	0x3c1c0a48	0.009523936
120	0x3d99f0db	0.07516643
121	0x3da902fd	0.08252523
122	0xbca9707b	-0.020683518
123	0x3dccc57d	0.099986054
124	0x3cfff56a	0.031244952
125	0x3dffbfd2	0.12487759
126	0xbc8f6bc3	-0.01750744
127	0x3d1dac0b	0.03849415
